{"format": "graph-model", "generatedBy": "1.14.0", "convertedBy": "TensorFlow.js Converter v1.2.6", "modelTopology": {"node": [{"name": "swa_model/value_output/shape", "op": "Const", "attr": {"value": {"tensor": {"dtype": "DT_INT32", "tensorShape": {"dim": [{"size": "2"}]}}}, "dtype": {"type": "DT_INT32"}}}, {"name": "swa_model/add_12", "op": "Const", "attr": {"value": {"tensor": {"dtype": "DT_FLOAT", "tensorShape": {"dim": [{"size": "3"}]}}}, "dtype": {"type": "DT_FLOAT"}}}, {"name": "swa_model/v3/w", "op": "Const", "attr": {"dtype": {"type": "DT_FLOAT"}, "value": {"tensor": {"dtype": "DT_FLOAT", "tensorShape": {"dim": [{"size": "48"}, {"size": "3"}]}}}}}, {"name": "swa_model/v2/b", "op": "Const", "attr": {"value": {"tensor": {"dtype": "DT_FLOAT", "tensorShape": {"dim": [{"size": "48"}]}}}, "dtype": {"type": "DT_FLOAT"}}}, {"name": "swa_model/v2/w", "op": "Const", "attr": {"value": {"tensor": {"dtype": "DT_FLOAT", "tensorShape": {"dim": [{"size": "96"}, {"size": "48"}]}}}, "dtype": {"type": "DT_FLOAT"}}}, {"name": "swa_model/policy_output/axis", "op": "Const", "attr": {"value": {"tensor": {"dtype": "DT_INT32", "tensorShape": {}}}, "dtype": {"type": "DT_INT32"}}}, {"name": "swa_model/sub_25/y", "op": "Const", "attr": {"value": {"tensor": {"dtype": "DT_FLOAT", "tensorShape": {}}}, "dtype": {"type": "DT_FLOAT"}}}, {"name": "swa_model/sub_18/y", "op": "Const", "attr": {"value": {"tensor": {"dtype": "DT_FLOAT", "tensorShape": {}}}, "dtype": {"type": "DT_FLOAT"}}}, {"name": "swa_model/Reshape_14/shape", "op": "Const", "attr": {"value": {"tensor": {"dtype": "DT_INT32", "tensorShape": {"dim": [{"size": "2"}]}}}, "dtype": {"type": "DT_INT32"}}}, {"name": "swa_model/Sum_1/reduction_indices", "op": "Const", "attr": {"value": {"tensor": {"dtype": "DT_INT32", "tensorShape": {"dim": [{"size": "3"}]}}}, "dtype": {"type": "DT_INT32"}}}, {"name": "swa_model/strided_slice_4/stack_2", "op": "Const", "attr": {"value": {"tensor": {"dtype": "DT_INT32", "tensorShape": {"dim": [{"size": "4"}]}}}, "dtype": {"type": "DT_INT32"}}}, {"name": "swa_model/strided_slice_4/stack_1", "op": "Const", "attr": {"value": {"tensor": {"dtype": "DT_INT32", "tensorShape": {"dim": [{"size": "4"}]}}}, "dtype": {"type": "DT_INT32"}}}, {"name": "swa_model/strided_slice_4/stack", "op": "Const", "attr": {"dtype": {"type": "DT_INT32"}, "value": {"tensor": {"dtype": "DT_INT32", "tensorShape": {"dim": [{"size": "4"}]}}}}}, {"name": "swa_model/Reshape/shape", "op": "Const", "attr": {"value": {"tensor": {"dtype": "DT_INT32", "tensorShape": {"dim": [{"size": "4"}]}}}, "dtype": {"type": "DT_INT32"}}}, {"name": "swa_model/add", "op": "Const", "attr": {"dtype": {"type": "DT_FLOAT"}, "value": {"tensor": {"dtype": "DT_FLOAT", "tensorShape": {"dim": [{"size": "1"}, {"size": "22"}, {"size": "22"}]}}}}}, {"name": "swa_model/Reshape_2/shape", "op": "Const", "attr": {"value": {"tensor": {"dtype": "DT_INT32", "tensorShape": {"dim": [{"size": "3"}]}}}, "dtype": {"type": "DT_INT32"}}}, {"name": "swa_model/strided_slice_11/stack_2", "op": "Const", "attr": {"value": {"tensor": {"dtype": "DT_INT32", "tensorShape": {"dim": [{"size": "1"}]}}}, "dtype": {"type": "DT_INT32"}}}, {"name": "swa_model/strided_slice_11/stack_1", "op": "Const", "attr": {"value": {"tensor": {"dtype": "DT_INT32", "tensorShape": {"dim": [{"size": "1"}]}}}, "dtype": {"type": "DT_INT32"}}}, {"name": "swa_model/strided_slice_11/stack", "op": "Const", "attr": {"value": {"tensor": {"dtype": "DT_INT32", "tensorShape": {"dim": [{"size": "1"}]}}}, "dtype": {"type": "DT_INT32"}}}, {"name": "swa_model/symmetries", "op": "Placeholder", "attr": {"dtype": {"type": "DT_BOOL"}, "shape": {"shape": {"dim": [{"size": "3"}]}}}}, {"name": "swa_model/strided_slice_9/stack", "op": "Const", "attr": {"value": {"tensor": {"dtype": "DT_INT32", "tensorShape": {"dim": [{"size": "1"}]}}}, "dtype": {"type": "DT_INT32"}}}, {"name": "swa_model/bin_inputs", "op": "Placeholder", "attr": {"shape": {"shape": {"dim": [{"size": "-1"}, {"size": "49"}, {"size": "22"}]}}, "dtype": {"type": "DT_FLOAT"}}}, {"name": "ConstantFolding/swa_model/truediv_4_recip", "op": "Const", "attr": {"value": {"tensor": {"dtype": "DT_FLOAT", "tensorShape": {}}}, "dtype": {"type": "DT_FLOAT"}}}, {"name": "swa_model/Mean_34/reduction_indices", "op": "Const", "attr": {"value": {"tensor": {"dtype": "DT_INT32", "tensorShape": {"dim": [{"size": "2"}]}}}, "dtype": {"type": "DT_INT32"}}}, {"name": "swa_model/Const", "op": "Const", "attr": {"value": {"tensor": {"dtype": "DT_BOOL", "tensorShape": {}}}, "dtype": {"type": "DT_BOOL"}}}, {"name": "swa_model/Tensordot_4/free", "op": "Const", "attr": {"value": {"tensor": {"dtype": "DT_INT32", "tensorShape": {"dim": [{"size": "3"}]}}}, "dtype": {"type": "DT_INT32"}}}, {"name": "swa_model/v1/w", "op": "Const", "attr": {"value": {"tensor": {"dtype": "DT_FLOAT", "tensorShape": {"dim": [{"size": "1"}, {"size": "1"}, {"size": "96"}, {"size": "32"}]}}}, "dtype": {"type": "DT_FLOAT"}}}, {"name": "swa_model/Reshape_4/shape", "op": "Const", "attr": {"dtype": {"type": "DT_INT32"}, "value": {"tensor": {"dtype": "DT_INT32", "tensorShape": {"dim": [{"size": "4"}]}}}}}, {"name": "swa_model/Tensordot_1/Reshape_1", "op": "Const", "attr": {"value": {"tensor": {"dtype": "DT_FLOAT", "tensorShape": {"dim": [{"size": "14"}, {"size": "96"}]}}}, "dtype": {"type": "DT_FLOAT"}}}, {"name": "swa_model/Tensordot_4/GatherV2_1/axis", "op": "Const", "attr": {"value": {"tensor": {"dtype": "DT_INT32", "tensorShape": {}}}, "dtype": {"type": "DT_INT32"}}}, {"name": "swa_model/global_inputs", "op": "Placeholder", "attr": {"dtype": {"type": "DT_FLOAT"}, "shape": {"shape": {"dim": [{"size": "-1"}, {"size": "14"}]}}}}, {"name": "swa_model/PadV2", "op": "Const", "attr": {"value": {"tensor": {"dtype": "DT_FLOAT", "tensorShape": {"dim": [{"size": "1"}, {"size": "14"}]}}}, "dtype": {"type": "DT_FLOAT"}}}, {"name": "swa_model/conv1/w", "op": "Const", "attr": {"value": {"tensor": {"dtype": "DT_FLOAT", "tensorShape": {"dim": [{"size": "5"}, {"size": "5"}, {"size": "22"}, {"size": "96"}]}}}, "dtype": {"type": "DT_FLOAT"}}}, {"name": "swa_model/rconv1/w2", "op": "Const", "attr": {"value": {"tensor": {"dtype": "DT_FLOAT", "tensorShape": {"dim": [{"size": "3"}, {"size": "3"}, {"size": "96"}, {"size": "96"}]}}}, "dtype": {"type": "DT_FLOAT"}}}, {"name": "swa_model/rconv1/w1", "op": "Const", "attr": {"value": {"tensor": {"dtype": "DT_FLOAT", "tensorShape": {"dim": [{"size": "3"}, {"size": "3"}, {"size": "96"}, {"size": "96"}]}}}, "dtype": {"type": "DT_FLOAT"}}}, {"name": "ConstantFolding/swa_model/cond_3/Switch_4-folded-0", "op": "Const", "attr": {"value": {"tensor": {"dtype": "DT_FLOAT", "tensorShape": {"dim": [{"size": "96"}]}}}, "dtype": {"type": "DT_FLOAT"}}}, {"name": "ConstantFolding/swa_model/cond_3/Switch_3-folded-0", "op": "Const", "attr": {"dtype": {"type": "DT_FLOAT"}, "value": {"tensor": {"dtype": "DT_FLOAT", "tensorShape": {"dim": [{"size": "96"}]}}}}}, {"name": "ConstantFolding/swa_model/cond_4/Switch_4-folded-0", "op": "Const", "attr": {"value": {"tensor": {"dtype": "DT_FLOAT", "tensorShape": {"dim": [{"size": "96"}]}}}, "dtype": {"type": "DT_FLOAT"}}}, {"name": "ConstantFolding/swa_model/cond_4/Switch_3-folded-0", "op": "Const", "attr": {"value": {"tensor": {"dtype": "DT_FLOAT", "tensorShape": {"dim": [{"size": "96"}]}}}, "dtype": {"type": "DT_FLOAT"}}}, {"name": "swa_model/rconv2/w2", "op": "Const", "attr": {"value": {"tensor": {"dtype": "DT_FLOAT", "tensorShape": {"dim": [{"size": "3"}, {"size": "3"}, {"size": "96"}, {"size": "96"}]}}}, "dtype": {"type": "DT_FLOAT"}}}, {"name": "swa_model/rconv2/w1", "op": "Const", "attr": {"value": {"tensor": {"dtype": "DT_FLOAT", "tensorShape": {"dim": [{"size": "3"}, {"size": "3"}, {"size": "96"}, {"size": "96"}]}}}, "dtype": {"type": "DT_FLOAT"}}}, {"name": "ConstantFolding/swa_model/cond_5/Switch_4-folded-0", "op": "Const", "attr": {"value": {"tensor": {"dtype": "DT_FLOAT", "tensorShape": {"dim": [{"size": "96"}]}}}, "dtype": {"type": "DT_FLOAT"}}}, {"name": "ConstantFolding/swa_model/cond_5/Switch_3-folded-0", "op": "Const", "attr": {"value": {"tensor": {"dtype": "DT_FLOAT", "tensorShape": {"dim": [{"size": "96"}]}}}, "dtype": {"type": "DT_FLOAT"}}}, {"name": "ConstantFolding/swa_model/cond_6/Switch_4-folded-0", "op": "Const", "attr": {"value": {"tensor": {"dtype": "DT_FLOAT", "tensorShape": {"dim": [{"size": "96"}]}}}, "dtype": {"type": "DT_FLOAT"}}}, {"name": "ConstantFolding/swa_model/cond_6/Switch_3-folded-0", "op": "Const", "attr": {"dtype": {"type": "DT_FLOAT"}, "value": {"tensor": {"dtype": "DT_FLOAT", "tensorShape": {"dim": [{"size": "96"}]}}}}}, {"name": "swa_model/rconv3/w2", "op": "Const", "attr": {"value": {"tensor": {"dtype": "DT_FLOAT", "tensorShape": {"dim": [{"size": "3"}, {"size": "3"}, {"size": "64"}, {"size": "96"}]}}}, "dtype": {"type": "DT_FLOAT"}}}, {"name": "swa_model/Tensordot_2/Const_2", "op": "Const", "attr": {"value": {"tensor": {"dtype": "DT_INT32", "tensorShape": {"dim": [{"size": "1"}]}}}, "dtype": {"type": "DT_INT32"}}}, {"name": "swa_model/concat_2/axis", "op": "Const", "attr": {"value": {"tensor": {"dtype": "DT_INT32", "tensorShape": {}}}, "dtype": {"type": "DT_INT32"}}}, {"name": "swa_model/rconv3/w1b", "op": "Const", "attr": {"value": {"tensor": {"dtype": "DT_FLOAT", "tensorShape": {"dim": [{"size": "3"}, {"size": "3"}, {"size": "96"}, {"size": "32"}]}}}, "dtype": {"type": "DT_FLOAT"}}}, {"name": "ConstantFolding/swa_model/cond_7/Switch_4-folded-0", "op": "Const", "attr": {"dtype": {"type": "DT_FLOAT"}, "value": {"tensor": {"dtype": "DT_FLOAT", "tensorShape": {"dim": [{"size": "96"}]}}}}}, {"name": "ConstantFolding/swa_model/cond_7/Switch_3-folded-0", "op": "Const", "attr": {"value": {"tensor": {"dtype": "DT_FLOAT", "tensorShape": {"dim": [{"size": "96"}]}}}, "dtype": {"type": "DT_FLOAT"}}}, {"name": "ConstantFolding/swa_model/cond_8/Switch_4-folded-0", "op": "Const", "attr": {"dtype": {"type": "DT_FLOAT"}, "value": {"tensor": {"dtype": "DT_FLOAT", "tensorShape": {"dim": [{"size": "32"}]}}}}}, {"name": "ConstantFolding/swa_model/cond_8/Switch_3-folded-0", "op": "Const", "attr": {"value": {"tensor": {"dtype": "DT_FLOAT", "tensorShape": {"dim": [{"size": "32"}]}}}, "dtype": {"type": "DT_FLOAT"}}}, {"name": "swa_model/Reshape_10/shape", "op": "Const", "attr": {"value": {"tensor": {"dtype": "DT_INT32", "tensorShape": {"dim": [{"size": "4"}]}}}, "dtype": {"type": "DT_INT32"}}}, {"name": "swa_model/Tensordot_2/Reshape_1", "op": "Const", "attr": {"value": {"tensor": {"dtype": "DT_FLOAT", "tensorShape": {"dim": [{"size": "96"}, {"size": "64"}]}}}, "dtype": {"type": "DT_FLOAT"}}}, {"name": "swa_model/rconv3/w1a", "op": "Const", "attr": {"value": {"tensor": {"dtype": "DT_FLOAT", "tensorShape": {"dim": [{"size": "3"}, {"size": "3"}, {"size": "96"}, {"size": "64"}]}}}, "dtype": {"type": "DT_FLOAT"}}}, {"name": "ConstantFolding/swa_model/cond_9/Switch_4-folded-0", "op": "Const", "attr": {"dtype": {"type": "DT_FLOAT"}, "value": {"tensor": {"dtype": "DT_FLOAT", "tensorShape": {"dim": [{"size": "64"}]}}}}}, {"name": "ConstantFolding/swa_model/cond_9/Switch_3-folded-0", "op": "Const", "attr": {"value": {"tensor": {"dtype": "DT_FLOAT", "tensorShape": {"dim": [{"size": "64"}]}}}, "dtype": {"type": "DT_FLOAT"}}}, {"name": "swa_model/rconv4/w2", "op": "Const", "attr": {"value": {"tensor": {"dtype": "DT_FLOAT", "tensorShape": {"dim": [{"size": "3"}, {"size": "3"}, {"size": "96"}, {"size": "96"}]}}}, "dtype": {"type": "DT_FLOAT"}}}, {"name": "swa_model/rconv4/w1", "op": "Const", "attr": {"value": {"tensor": {"dtype": "DT_FLOAT", "tensorShape": {"dim": [{"size": "3"}, {"size": "3"}, {"size": "96"}, {"size": "96"}]}}}, "dtype": {"type": "DT_FLOAT"}}}, {"name": "ConstantFolding/swa_model/cond_10/Switch_4-folded-0", "op": "Const", "attr": {"value": {"tensor": {"dtype": "DT_FLOAT", "tensorShape": {"dim": [{"size": "96"}]}}}, "dtype": {"type": "DT_FLOAT"}}}, {"name": "ConstantFolding/swa_model/cond_10/Switch_3-folded-0", "op": "Const", "attr": {"value": {"tensor": {"dtype": "DT_FLOAT", "tensorShape": {"dim": [{"size": "96"}]}}}, "dtype": {"type": "DT_FLOAT"}}}, {"name": "ConstantFolding/swa_model/cond_11/Switch_4-folded-0", "op": "Const", "attr": {"value": {"tensor": {"dtype": "DT_FLOAT", "tensorShape": {"dim": [{"size": "96"}]}}}, "dtype": {"type": "DT_FLOAT"}}}, {"name": "ConstantFolding/swa_model/cond_11/Switch_3-folded-0", "op": "Const", "attr": {"value": {"tensor": {"dtype": "DT_FLOAT", "tensorShape": {"dim": [{"size": "96"}]}}}, "dtype": {"type": "DT_FLOAT"}}}, {"name": "swa_model/rconv5/w2", "op": "Const", "attr": {"value": {"tensor": {"dtype": "DT_FLOAT", "tensorShape": {"dim": [{"size": "3"}, {"size": "3"}, {"size": "64"}, {"size": "96"}]}}}, "dtype": {"type": "DT_FLOAT"}}}, {"name": "swa_model/rconv5/w1b", "op": "Const", "attr": {"value": {"tensor": {"dtype": "DT_FLOAT", "tensorShape": {"dim": [{"size": "3"}, {"size": "3"}, {"size": "96"}, {"size": "32"}]}}}, "dtype": {"type": "DT_FLOAT"}}}, {"name": "ConstantFolding/swa_model/cond_12/Switch_4-folded-0", "op": "Const", "attr": {"value": {"tensor": {"dtype": "DT_FLOAT", "tensorShape": {"dim": [{"size": "96"}]}}}, "dtype": {"type": "DT_FLOAT"}}}, {"name": "ConstantFolding/swa_model/cond_12/Switch_3-folded-0", "op": "Const", "attr": {"dtype": {"type": "DT_FLOAT"}, "value": {"tensor": {"dtype": "DT_FLOAT", "tensorShape": {"dim": [{"size": "96"}]}}}}}, {"name": "ConstantFolding/swa_model/cond_13/Switch_4-folded-0", "op": "Const", "attr": {"value": {"tensor": {"dtype": "DT_FLOAT", "tensorShape": {"dim": [{"size": "32"}]}}}, "dtype": {"type": "DT_FLOAT"}}}, {"name": "ConstantFolding/swa_model/cond_13/Switch_3-folded-0", "op": "Const", "attr": {"value": {"tensor": {"dtype": "DT_FLOAT", "tensorShape": {"dim": [{"size": "32"}]}}}, "dtype": {"type": "DT_FLOAT"}}}, {"name": "swa_model/Tensordot_3/Reshape_1", "op": "Const", "attr": {"value": {"tensor": {"dtype": "DT_FLOAT", "tensorShape": {"dim": [{"size": "96"}, {"size": "64"}]}}}, "dtype": {"type": "DT_FLOAT"}}}, {"name": "swa_model/rconv5/w1a", "op": "Const", "attr": {"value": {"tensor": {"dtype": "DT_FLOAT", "tensorShape": {"dim": [{"size": "3"}, {"size": "3"}, {"size": "96"}, {"size": "64"}]}}}, "dtype": {"type": "DT_FLOAT"}}}, {"name": "ConstantFolding/swa_model/cond_14/Switch_4-folded-0", "op": "Const", "attr": {"value": {"tensor": {"dtype": "DT_FLOAT", "tensorShape": {"dim": [{"size": "64"}]}}}, "dtype": {"type": "DT_FLOAT"}}}, {"name": "ConstantFolding/swa_model/cond_14/Switch_3-folded-0", "op": "Const", "attr": {"value": {"tensor": {"dtype": "DT_FLOAT", "tensorShape": {"dim": [{"size": "64"}]}}}, "dtype": {"type": "DT_FLOAT"}}}, {"name": "swa_model/rconv6/w2", "op": "Const", "attr": {"value": {"tensor": {"dtype": "DT_FLOAT", "tensorShape": {"dim": [{"size": "3"}, {"size": "3"}, {"size": "96"}, {"size": "96"}]}}}, "dtype": {"type": "DT_FLOAT"}}}, {"name": "swa_model/rconv6/w1", "op": "Const", "attr": {"value": {"tensor": {"dtype": "DT_FLOAT", "tensorShape": {"dim": [{"size": "3"}, {"size": "3"}, {"size": "96"}, {"size": "96"}]}}}, "dtype": {"type": "DT_FLOAT"}}}, {"name": "ConstantFolding/swa_model/cond_15/Switch_4-folded-0", "op": "Const", "attr": {"value": {"tensor": {"dtype": "DT_FLOAT", "tensorShape": {"dim": [{"size": "96"}]}}}, "dtype": {"type": "DT_FLOAT"}}}, {"name": "ConstantFolding/swa_model/cond_15/Switch_3-folded-0", "op": "Const", "attr": {"value": {"tensor": {"dtype": "DT_FLOAT", "tensorShape": {"dim": [{"size": "96"}]}}}, "dtype": {"type": "DT_FLOAT"}}}, {"name": "ConstantFolding/swa_model/cond_16/Switch_4-folded-0", "op": "Const", "attr": {"value": {"tensor": {"dtype": "DT_FLOAT", "tensorShape": {"dim": [{"size": "96"}]}}}, "dtype": {"type": "DT_FLOAT"}}}, {"name": "ConstantFolding/swa_model/cond_16/Switch_3-folded-0", "op": "Const", "attr": {"value": {"tensor": {"dtype": "DT_FLOAT", "tensorShape": {"dim": [{"size": "96"}]}}}, "dtype": {"type": "DT_FLOAT"}}}, {"name": "ConstantFolding/swa_model/cond_17/Switch_4-folded-0", "op": "Const", "attr": {"value": {"tensor": {"dtype": "DT_FLOAT", "tensorShape": {"dim": [{"size": "96"}]}}}, "dtype": {"type": "DT_FLOAT"}}}, {"name": "ConstantFolding/swa_model/cond_17/Switch_3-folded-0", "op": "Const", "attr": {"value": {"tensor": {"dtype": "DT_FLOAT", "tensorShape": {"dim": [{"size": "96"}]}}}, "dtype": {"type": "DT_FLOAT"}}}, {"name": "ConstantFolding/swa_model/cond_23/Switch_4-folded-0", "op": "Const", "attr": {"value": {"tensor": {"dtype": "DT_FLOAT", "tensorShape": {"dim": [{"size": "32"}]}}}, "dtype": {"type": "DT_FLOAT"}}}, {"name": "ConstantFolding/swa_model/cond_23/Switch_3-folded-0", "op": "Const", "attr": {"value": {"tensor": {"dtype": "DT_FLOAT", "tensorShape": {"dim": [{"size": "32"}]}}}, "dtype": {"type": "DT_FLOAT"}}}, {"name": "swa_model/Reshape_12/shape", "op": "Const", "attr": {"dtype": {"type": "DT_INT32"}, "value": {"tensor": {"dtype": "DT_INT32", "tensorShape": {"dim": [{"size": "3"}]}}}}}, {"name": "swa_model/Tensordot_5/Reshape_1", "op": "Const", "attr": {"value": {"tensor": {"dtype": "DT_FLOAT", "tensorShape": {"dim": [{"size": "96"}, {"size": "2"}]}}}, "dtype": {"type": "DT_FLOAT"}}}, {"name": "swa_model/g1/w", "op": "Const", "attr": {"value": {"tensor": {"dtype": "DT_FLOAT", "tensorShape": {"dim": [{"size": "1"}, {"size": "1"}, {"size": "96"}, {"size": "32"}]}}}, "dtype": {"type": "DT_FLOAT"}}}, {"name": "ConstantFolding/swa_model/cond_18/Switch_4-folded-0", "op": "Const", "attr": {"value": {"tensor": {"dtype": "DT_FLOAT", "tensorShape": {"dim": [{"size": "32"}]}}}, "dtype": {"type": "DT_FLOAT"}}}, {"name": "ConstantFolding/swa_model/cond_18/Switch_3-folded-0", "op": "Const", "attr": {"value": {"tensor": {"dtype": "DT_FLOAT", "tensorShape": {"dim": [{"size": "32"}]}}}, "dtype": {"type": "DT_FLOAT"}}}, {"name": "swa_model/Reshape_11/shape", "op": "Const", "attr": {"value": {"tensor": {"dtype": "DT_INT32", "tensorShape": {"dim": [{"size": "3"}]}}}, "dtype": {"type": "DT_INT32"}}}, {"name": "swa_model/sub_20/x", "op": "Const", "attr": {"value": {"tensor": {"dtype": "DT_FLOAT", "tensorShape": {}}}, "dtype": {"type": "DT_FLOAT"}}}, {"name": "swa_model/mul_26/y", "op": "Const", "attr": {"value": {"tensor": {"dtype": "DT_FLOAT", "tensorShape": {}}}, "dtype": {"type": "DT_FLOAT"}}}, {"name": "swa_model/p2/w", "op": "Const", "attr": {"value": {"tensor": {"dtype": "DT_FLOAT", "tensorShape": {"dim": [{"size": "1"}, {"size": "1"}, {"size": "32"}, {"size": "2"}]}}}, "dtype": {"type": "DT_FLOAT"}}}, {"name": "swa_model/Tensordot_4/Const_2", "op": "Const", "attr": {"value": {"tensor": {"dtype": "DT_INT32", "tensorShape": {"dim": [{"size": "1"}]}}}, "dtype": {"type": "DT_INT32"}}}, {"name": "swa_model/Tensordot_4/Reshape_1", "op": "Const", "attr": {"dtype": {"type": "DT_FLOAT"}, "value": {"tensor": {"dtype": "DT_FLOAT", "tensorShape": {"dim": [{"size": "96"}, {"size": "32"}]}}}}}, {"name": "swa_model/p1/intermediate_conv/w", "op": "Const", "attr": {"value": {"tensor": {"dtype": "DT_FLOAT", "tensorShape": {"dim": [{"size": "1"}, {"size": "1"}, {"size": "96"}, {"size": "32"}]}}}, "dtype": {"type": "DT_FLOAT"}}}, {"name": "ConstantFolding/swa_model/cond_19/Switch_4-folded-0", "op": "Const", "attr": {"value": {"tensor": {"dtype": "DT_FLOAT", "tensorShape": {"dim": [{"size": "32"}]}}}, "dtype": {"type": "DT_FLOAT"}}}, {"name": "ConstantFolding/swa_model/cond_19/Switch_3-folded-0", "op": "Const", "attr": {"value": {"tensor": {"dtype": "DT_FLOAT", "tensorShape": {"dim": [{"size": "32"}]}}}, "dtype": {"type": "DT_FLOAT"}}}, {"name": "swa_model/ownership_output/shape", "op": "Const", "attr": {"value": {"tensor": {"dtype": "DT_INT32", "tensorShape": {"dim": [{"size": "3"}]}}}, "dtype": {"type": "DT_INT32"}}}, {"name": "swa_model/vownership/w", "op": "Const", "attr": {"value": {"tensor": {"dtype": "DT_FLOAT", "tensorShape": {"dim": [{"size": "1"}, {"size": "1"}, {"size": "32"}, {"size": "1"}]}}}, "dtype": {"type": "DT_FLOAT"}}}, {"name": "swa_model/miscvalues_output/shape", "op": "Const", "attr": {"value": {"tensor": {"dtype": "DT_INT32", "tensorShape": {"dim": [{"size": "2"}]}}}, "dtype": {"type": "DT_INT32"}}}, {"name": "swa_model/mv3/b", "op": "Const", "attr": {"value": {"tensor": {"dtype": "DT_FLOAT", "tensorShape": {"dim": [{"size": "6"}]}}}, "dtype": {"type": "DT_FLOAT"}}}, {"name": "swa_model/mv3/w", "op": "Const", "attr": {"value": {"tensor": {"dtype": "DT_FLOAT", "tensorShape": {"dim": [{"size": "48"}, {"size": "6"}]}}}, "dtype": {"type": "DT_FLOAT"}}}, {"name": "swa_model/strided_slice_11", "op": "StridedSlice", "input": ["swa_model/symmetries", "swa_model/strided_slice_11/stack", "swa_model/strided_slice_11/stack_1", "swa_model/strided_slice_11/stack_2"], "attr": {"new_axis_mask": {"i": "0"}, "end_mask": {"i": "0"}, "T": {"type": "DT_BOOL"}, "Index": {"type": "DT_INT32"}, "shrink_axis_mask": {"i": "1"}, "ellipsis_mask": {"i": "0"}, "begin_mask": {"i": "0"}}}, {"name": "swa_model/strided_slice_10", "op": "StridedSlice", "input": ["swa_model/symmetries", "swa_model/strided_slice_11/stack_2", "swa_model/strided_slice_11/stack", "swa_model/strided_slice_11/stack_2"], "attr": {"T": {"type": "DT_BOOL"}, "Index": {"type": "DT_INT32"}, "shrink_axis_mask": {"i": "1"}, "begin_mask": {"i": "0"}, "ellipsis_mask": {"i": "0"}, "new_axis_mask": {"i": "0"}, "end_mask": {"i": "0"}}}, {"name": "swa_model/strided_slice_9", "op": "StridedSlice", "input": ["swa_model/symmetries", "swa_model/strided_slice_9/stack", "swa_model/strided_slice_11/stack_2", "swa_model/strided_slice_11/stack_2"], "attr": {"Index": {"type": "DT_INT32"}, "T": {"type": "DT_BOOL"}, "shrink_axis_mask": {"i": "1"}, "ellipsis_mask": {"i": "0"}, "begin_mask": {"i": "0"}, "new_axis_mask": {"i": "0"}, "end_mask": {"i": "0"}}}, {"name": "swa_model/Reshape", "op": "Reshape", "input": ["swa_model/bin_inputs", "swa_model/Reshape/shape"], "attr": {"T": {"type": "DT_FLOAT"}, "Tshape": {"type": "DT_INT32"}}}, {"name": "swa_model/mul", "op": "Mul", "input": ["swa_model/PadV2", "swa_model/global_inputs"], "attr": {"T": {"type": "DT_FLOAT"}}}, {"name": "swa_model/cond_24/Switch", "op": "Switch", "input": ["swa_model/strided_slice_11", "swa_model/strided_slice_11"], "attr": {"T": {"type": "DT_BOOL"}}}, {"name": "swa_model/cond_26/Switch", "op": "Switch", "input": ["swa_model/strided_slice_10", "swa_model/strided_slice_10"], "attr": {"T": {"type": "DT_BOOL"}}}, {"name": "swa_model/cond_25/Switch", "op": "Switch", "input": ["swa_model/strided_slice_9", "swa_model/strided_slice_9"], "attr": {"T": {"type": "DT_BOOL"}}}, {"name": "swa_model/cond/Switch_1", "op": "Switch", "input": ["swa_model/Reshape", "swa_model/strided_slice_9"], "attr": {"T": {"type": "DT_FLOAT"}}}, {"name": "swa_model/Tensordot_1/Shape", "op": "Shape", "input": ["swa_model/mul"], "attr": {"T": {"type": "DT_FLOAT"}, "out_type": {"type": "DT_INT32"}}}, {"name": "swa_model/cond_24/switch_t", "op": "Identity", "input": ["swa_model/cond_24/Switch:1"], "attr": {"T": {"type": "DT_BOOL"}}}, {"name": "swa_model/cond_26/switch_t", "op": "Identity", "input": ["swa_model/cond_26/Switch:1"], "attr": {"T": {"type": "DT_BOOL"}}}, {"name": "swa_model/cond_25/switch_t", "op": "Identity", "input": ["swa_model/cond_25/Switch:1"], "attr": {"T": {"type": "DT_BOOL"}}}, {"name": "swa_model/Tensordot_1/GatherV2_1", "op": "GatherV2", "input": ["swa_model/Tensordot_1/Shape", "swa_model/strided_slice_11/stack_2", "swa_model/Tensordot_4/GatherV2_1/axis"], "attr": {"Taxis": {"type": "DT_INT32"}, "batch_dims": {"i": "0"}, "Tindices": {"type": "DT_INT32"}, "Tparams": {"type": "DT_INT32"}}}, {"name": "swa_model/Tensordot_1/GatherV2", "op": "GatherV2", "input": ["swa_model/Tensordot_1/Shape", "swa_model/strided_slice_9/stack", "swa_model/Tensordot_4/GatherV2_1/axis"], "attr": {"Taxis": {"type": "DT_INT32"}, "batch_dims": {"i": "0"}, "Tindices": {"type": "DT_INT32"}, "Tparams": {"type": "DT_INT32"}}}, {"name": "swa_model/cond_24/transpose/perm", "op": "Const", "input": ["^swa_model/cond_24/switch_t"], "attr": {"dtype": {"type": "DT_INT32"}, "value": {"tensor": {"dtype": "DT_INT32", "tensorShape": {"dim": [{"size": "4"}]}}}}}, {"name": "swa_model/cond_26/ReverseV2/axis", "op": "Const", "input": ["^swa_model/cond_26/switch_t"], "attr": {"dtype": {"type": "DT_INT32"}, "value": {"tensor": {"dtype": "DT_INT32", "tensorShape": {"dim": [{"size": "1"}]}}}}}, {"name": "swa_model/cond_25/ReverseV2/axis", "op": "Const", "input": ["^swa_model/cond_25/switch_t"], "attr": {"value": {"tensor": {"dtype": "DT_INT32", "tensorShape": {"dim": [{"size": "1"}]}}}, "dtype": {"type": "DT_INT32"}}}, {"name": "swa_model/Tensordot_1/Prod_1", "op": "Prod", "input": ["swa_model/Tensordot_1/GatherV2_1", "swa_model/strided_slice_9/stack"], "attr": {"T": {"type": "DT_INT32"}, "Tidx": {"type": "DT_INT32"}, "keep_dims": {"b": false}}}, {"name": "swa_model/Tensordot_1/Prod", "op": "Prod", "input": ["swa_model/Tensordot_1/GatherV2", "swa_model/strided_slice_9/stack"], "attr": {"T": {"type": "DT_INT32"}, "Tidx": {"type": "DT_INT32"}, "keep_dims": {"b": false}}}, {"name": "swa_model/cond/ReverseV2", "op": "ReverseV2", "input": ["swa_model/cond/Switch_1:1", "swa_model/cond_25/ReverseV2/axis"], "attr": {"T": {"type": "DT_FLOAT"}, "Tidx": {"type": "DT_INT32"}}}, {"name": "swa_model/Tensordot_1/stack", "op": "Pack", "input": ["swa_model/Tensordot_1/Prod", "swa_model/Tensordot_1/Prod_1"], "attr": {"T": {"type": "DT_INT32"}, "axis": {"i": "0"}, "N": {"i": "2"}}}, {"name": "swa_model/cond/Merge", "op": "Merge", "input": ["swa_model/cond/Switch_1", "swa_model/cond/ReverseV2"], "attr": {"N": {"i": "2"}, "T": {"type": "DT_FLOAT"}}}, {"name": "swa_model/Tensordot_1/Reshape", "op": "Reshape", "input": ["swa_model/mul", "swa_model/Tensordot_1/stack"], "attr": {"Tshape": {"type": "DT_INT32"}, "T": {"type": "DT_FLOAT"}}}, {"name": "swa_model/cond_1/Switch_1", "op": "Switch", "input": ["swa_model/cond/Merge", "swa_model/strided_slice_10"], "attr": {"T": {"type": "DT_FLOAT"}}}, {"name": "swa_model/Tensordot_1/MatMul", "op": "MatMul", "input": ["swa_model/Tensordot_1/Reshape", "swa_model/Tensordot_1/Reshape_1"], "attr": {"T": {"type": "DT_FLOAT"}, "transpose_a": {"b": false}, "transpose_b": {"b": false}}}, {"name": "swa_model/cond_1/ReverseV2", "op": "ReverseV2", "input": ["swa_model/cond_1/Switch_1:1", "swa_model/cond_26/ReverseV2/axis"], "attr": {"Tidx": {"type": "DT_INT32"}, "T": {"type": "DT_FLOAT"}}}, {"name": "swa_model/Reshape_4", "op": "Reshape", "input": ["swa_model/Tensordot_1/MatMul", "swa_model/Reshape_4/shape"], "attr": {"T": {"type": "DT_FLOAT"}, "Tshape": {"type": "DT_INT32"}}}, {"name": "swa_model/cond_1/Merge", "op": "Merge", "input": ["swa_model/cond_1/Switch_1", "swa_model/cond_1/ReverseV2"], "attr": {"T": {"type": "DT_FLOAT"}, "N": {"i": "2"}}}, {"name": "swa_model/cond_2/Switch_1", "op": "Switch", "input": ["swa_model/cond_1/Merge", "swa_model/strided_slice_11"], "attr": {"T": {"type": "DT_FLOAT"}}}, {"name": "swa_model/cond_2/transpose", "op": "Transpose", "input": ["swa_model/cond_2/Switch_1:1", "swa_model/cond_24/transpose/perm"], "attr": {"T": {"type": "DT_FLOAT"}, "Tperm": {"type": "DT_INT32"}}}, {"name": "swa_model/cond_2/Merge", "op": "Merge", "input": ["swa_model/cond_2/Switch_1", "swa_model/cond_2/transpose"], "attr": {"T": {"type": "DT_FLOAT"}, "N": {"i": "2"}}}, {"name": "swa_model/Reshape_2", "op": "Reshape", "input": ["swa_model/cond_2/Merge", "swa_model/Reshape_2/shape"], "attr": {"T": {"type": "DT_FLOAT"}, "Tshape": {"type": "DT_INT32"}}}, {"name": "swa_model/MatMul", "op": "BatchMatMulV2", "input": ["swa_model/Reshape_2", "swa_model/add"], "attr": {"adj_x": {"b": false}, "adj_y": {"b": false}, "T": {"type": "DT_FLOAT"}}}, {"name": "swa_model/Reshape_3", "op": "Reshape", "input": ["swa_model/MatMul", "swa_model/Reshape/shape"], "attr": {"T": {"type": "DT_FLOAT"}, "Tshape": {"type": "DT_INT32"}}}, {"name": "swa_model/strided_slice_4", "op": "StridedSlice", "input": ["swa_model/Reshape_3", "swa_model/strided_slice_4/stack", "swa_model/strided_slice_4/stack_1", "swa_model/strided_slice_4/stack_2"], "attr": {"shrink_axis_mask": {"i": "0"}, "begin_mask": {"i": "7"}, "ellipsis_mask": {"i": "0"}, "new_axis_mask": {"i": "0"}, "end_mask": {"i": "7"}, "T": {"type": "DT_FLOAT"}, "Index": {"type": "DT_INT32"}}}, {"name": "swa_model/Conv2D", "op": "Conv2D", "input": ["swa_model/Reshape_3", "swa_model/conv1/w"], "attr": {"dilations": {"list": {"i": ["1", "1", "1", "1"]}}, "T": {"type": "DT_FLOAT"}, "strides": {"list": {"i": ["1", "1", "1", "1"]}}, "data_format": {"s": "TkhXQw=="}, "explicit_paddings": {"list": {}}, "use_cudnn_on_gpu": {"b": true}, "padding": {"s": "U0FNRQ=="}}}, {"name": "swa_model/Sum_1", "op": "Sum", "input": ["swa_model/strided_slice_4", "swa_model/Sum_1/reduction_indices"], "attr": {"Tidx": {"type": "DT_INT32"}, "keep_dims": {"b": false}, "T": {"type": "DT_FLOAT"}}}, {"name": "swa_model/sub_20", "op": "Sub", "input": ["swa_model/sub_20/x", "swa_model/strided_slice_4"], "attr": {"T": {"type": "DT_FLOAT"}}}, {"name": "swa_model/add_1", "op": "Add", "input": ["swa_model/Conv2D", "swa_model/Reshape_4"], "attr": {"T": {"type": "DT_FLOAT"}}}, {"name": "swa_model/Sqrt", "op": "Sqrt", "input": ["swa_model/Sum_1"], "attr": {"T": {"type": "DT_FLOAT"}}}, {"name": "swa_model/mul_26", "op": "Mul", "input": ["swa_model/mul_26/y", "swa_model/sub_20"], "attr": {"T": {"type": "DT_FLOAT"}}}, {"name": "swa_model/Mean", "op": "Mean", "input": ["swa_model/add_1", "swa_model/Tensordot_4/free"], "attr": {"T": {"type": "DT_FLOAT"}, "Tidx": {"type": "DT_INT32"}, "keep_dims": {"b": false}}}, {"name": "swa_model/Reshape_14", "op": "Reshape", "input": ["swa_model/Sqrt", "swa_model/Reshape_14/shape"], "attr": {"T": {"type": "DT_FLOAT"}, "Tshape": {"type": "DT_INT32"}}}, {"name": "swa_model/Reshape_10", "op": "Reshape", "input": ["swa_model/Sqrt", "swa_model/Reshape_10/shape"], "attr": {"T": {"type": "DT_FLOAT"}, "Tshape": {"type": "DT_INT32"}}}, {"name": "swa_model/sub", "op": "SquaredDifference", "input": ["swa_model/Mean", "swa_model/add_1"], "attr": {"T": {"type": "DT_FLOAT"}}}, {"name": "swa_model/cond_3/Switch_1", "op": "Switch", "input": ["swa_model/Mean", "swa_model/Const"], "attr": {"T": {"type": "DT_FLOAT"}}}, {"name": "swa_model/sub_23", "op": "Sub", "input": ["swa_model/Reshape_14", "swa_model/sub_18/y"], "attr": {"T": {"type": "DT_FLOAT"}}}, {"name": "swa_model/sub_18", "op": "Sub", "input": ["swa_model/Reshape_10", "swa_model/sub_18/y"], "attr": {"T": {"type": "DT_FLOAT"}}}, {"name": "swa_model/Mean_1", "op": "Mean", "input": ["swa_model/sub", "swa_model/Tensordot_4/free"], "attr": {"Tidx": {"type": "DT_INT32"}, "keep_dims": {"b": false}, "T": {"type": "DT_FLOAT"}}}, {"name": "swa_model/cond_3/Merge", "op": "Merge", "input": ["ConstantFolding/swa_model/cond_3/Switch_3-folded-0", "swa_model/cond_3/Switch_1:1"], "attr": {"T": {"type": "DT_FLOAT"}, "N": {"i": "2"}}}, {"name": "swa_model/Square_18", "op": "Square", "input": ["swa_model/sub_23"], "attr": {"T": {"type": "DT_FLOAT"}}}, {"name": "swa_model/truediv_3", "op": "Mul", "input": ["swa_model/sub_23", "swa_model/sub_25/y"], "attr": {"T": {"type": "DT_FLOAT"}}}, {"name": "swa_model/truediv_2", "op": "Mul", "input": ["swa_model/sub_18", "swa_model/sub_25/y"], "attr": {"T": {"type": "DT_FLOAT"}}}, {"name": "swa_model/cond_3/Switch_2", "op": "Switch", "input": ["swa_model/Mean_1", "swa_model/Const"], "attr": {"T": {"type": "DT_FLOAT"}}}, {"name": "swa_model/truediv_4", "op": "Mul", "input": ["ConstantFolding/swa_model/truediv_4_recip", "swa_model/Square_18"], "attr": {"T": {"type": "DT_FLOAT"}}}, {"name": "swa_model/cond_3/Merge_1", "op": "Merge", "input": ["ConstantFolding/swa_model/cond_3/Switch_4-folded-0", "swa_model/cond_3/Switch_2:1"], "attr": {"N": {"i": "2"}, "T": {"type": "DT_FLOAT"}}}, {"name": "swa_model/sub_25", "op": "Sub", "input": ["swa_model/truediv_4", "swa_model/sub_25/y"], "attr": {"T": {"type": "DT_FLOAT"}}}, {"name": "swa_model/batchnorm/sub", "op": "Const", "input": ["^swa_model/cond_3/Merge", "^swa_model/cond_3/Merge_1"], "attr": {"value": {"tensor": {"dtype": "DT_FLOAT", "tensorShape": {"dim": [{"size": "96"}]}}}, "dtype": {"type": "DT_FLOAT"}}}, {"name": "swa_model/batchnorm/Rsqrt", "op": "Const", "input": ["^swa_model/cond_3/Merge_1"], "attr": {"value": {"tensor": {"dtype": "DT_FLOAT", "tensorShape": {"dim": [{"size": "96"}]}}}, "dtype": {"type": "DT_FLOAT"}}}, {"name": "swa_model/batchnorm/mul", "op": "Mul", "input": ["swa_model/add_1", "swa_model/batchnorm/Rsqrt"], "attr": {"T": {"type": "DT_FLOAT"}}}, {"name": "swa_model/batchnorm/add_1", "op": "Add", "input": ["swa_model/batchnorm/mul", "swa_model/batchnorm/sub"], "attr": {"T": {"type": "DT_FLOAT"}}}, {"name": "swa_model/Relu", "op": "Relu", "input": ["swa_model/batchnorm/add_1"], "attr": {"T": {"type": "DT_FLOAT"}}}, {"name": "swa_model/Conv2D_1", "op": "Conv2D", "input": ["swa_model/Relu", "swa_model/rconv1/w1"], "attr": {"use_cudnn_on_gpu": {"b": true}, "explicit_paddings": {"list": {}}, "padding": {"s": "U0FNRQ=="}, "dilations": {"list": {"i": ["1", "1", "1", "1"]}}, "T": {"type": "DT_FLOAT"}, "data_format": {"s": "TkhXQw=="}, "strides": {"list": {"i": ["1", "1", "1", "1"]}}}}, {"name": "swa_model/Mean_2", "op": "Mean", "input": ["swa_model/Conv2D_1", "swa_model/Tensordot_4/free"], "attr": {"Tidx": {"type": "DT_INT32"}, "keep_dims": {"b": false}, "T": {"type": "DT_FLOAT"}}}, {"name": "swa_model/sub_1", "op": "SquaredDifference", "input": ["swa_model/Conv2D_1", "swa_model/Mean_2"], "attr": {"T": {"type": "DT_FLOAT"}}}, {"name": "swa_model/cond_4/Switch_1", "op": "Switch", "input": ["swa_model/Mean_2", "swa_model/Const"], "attr": {"T": {"type": "DT_FLOAT"}}}, {"name": "swa_model/Mean_3", "op": "Mean", "input": ["swa_model/sub_1", "swa_model/Tensordot_4/free"], "attr": {"Tidx": {"type": "DT_INT32"}, "keep_dims": {"b": false}, "T": {"type": "DT_FLOAT"}}}, {"name": "swa_model/cond_4/Merge", "op": "Merge", "input": ["ConstantFolding/swa_model/cond_4/Switch_3-folded-0", "swa_model/cond_4/Switch_1:1"], "attr": {"N": {"i": "2"}, "T": {"type": "DT_FLOAT"}}}, {"name": "swa_model/cond_4/Switch_2", "op": "Switch", "input": ["swa_model/Mean_3", "swa_model/Const"], "attr": {"T": {"type": "DT_FLOAT"}}}, {"name": "swa_model/cond_4/Merge_1", "op": "Merge", "input": ["ConstantFolding/swa_model/cond_4/Switch_4-folded-0", "swa_model/cond_4/Switch_2:1"], "attr": {"N": {"i": "2"}, "T": {"type": "DT_FLOAT"}}}, {"name": "swa_model/batchnorm_1/sub", "op": "Const", "input": ["^swa_model/cond_4/Merge", "^swa_model/cond_4/Merge_1"], "attr": {"value": {"tensor": {"dtype": "DT_FLOAT", "tensorShape": {"dim": [{"size": "96"}]}}}, "dtype": {"type": "DT_FLOAT"}}}, {"name": "swa_model/batchnorm_1/Rsqrt", "op": "Const", "input": ["^swa_model/cond_4/Merge_1"], "attr": {"dtype": {"type": "DT_FLOAT"}, "value": {"tensor": {"dtype": "DT_FLOAT", "tensorShape": {"dim": [{"size": "96"}]}}}}}, {"name": "swa_model/batchnorm_1/mul", "op": "Mul", "input": ["swa_model/Conv2D_1", "swa_model/batchnorm_1/Rsqrt"], "attr": {"T": {"type": "DT_FLOAT"}}}, {"name": "swa_model/batchnorm_1/add_1", "op": "Add", "input": ["swa_model/batchnorm_1/mul", "swa_model/batchnorm_1/sub"], "attr": {"T": {"type": "DT_FLOAT"}}}, {"name": "swa_model/Relu_1", "op": "Relu", "input": ["swa_model/batchnorm_1/add_1"], "attr": {"T": {"type": "DT_FLOAT"}}}, {"name": "swa_model/Conv2D_2", "op": "Conv2D", "input": ["swa_model/Relu_1", "swa_model/rconv1/w2"], "attr": {"padding": {"s": "U0FNRQ=="}, "dilations": {"list": {"i": ["1", "1", "1", "1"]}}, "T": {"type": "DT_FLOAT"}, "data_format": {"s": "TkhXQw=="}, "strides": {"list": {"i": ["1", "1", "1", "1"]}}, "explicit_paddings": {"list": {}}, "use_cudnn_on_gpu": {"b": true}}}, {"name": "swa_model/add_2", "op": "Add", "input": ["swa_model/Conv2D_2", "swa_model/add_1"], "attr": {"T": {"type": "DT_FLOAT"}}}, {"name": "swa_model/Mean_4", "op": "Mean", "input": ["swa_model/add_2", "swa_model/Tensordot_4/free"], "attr": {"Tidx": {"type": "DT_INT32"}, "keep_dims": {"b": false}, "T": {"type": "DT_FLOAT"}}}, {"name": "swa_model/sub_2", "op": "SquaredDifference", "input": ["swa_model/Mean_4", "swa_model/add_2"], "attr": {"T": {"type": "DT_FLOAT"}}}, {"name": "swa_model/cond_5/Switch_1", "op": "Switch", "input": ["swa_model/Mean_4", "swa_model/Const"], "attr": {"T": {"type": "DT_FLOAT"}}}, {"name": "swa_model/Mean_5", "op": "Mean", "input": ["swa_model/sub_2", "swa_model/Tensordot_4/free"], "attr": {"T": {"type": "DT_FLOAT"}, "Tidx": {"type": "DT_INT32"}, "keep_dims": {"b": false}}}, {"name": "swa_model/cond_5/Merge", "op": "Merge", "input": ["ConstantFolding/swa_model/cond_5/Switch_3-folded-0", "swa_model/cond_5/Switch_1:1"], "attr": {"T": {"type": "DT_FLOAT"}, "N": {"i": "2"}}}, {"name": "swa_model/cond_5/Switch_2", "op": "Switch", "input": ["swa_model/Mean_5", "swa_model/Const"], "attr": {"T": {"type": "DT_FLOAT"}}}, {"name": "swa_model/cond_5/Merge_1", "op": "Merge", "input": ["ConstantFolding/swa_model/cond_5/Switch_4-folded-0", "swa_model/cond_5/Switch_2:1"], "attr": {"N": {"i": "2"}, "T": {"type": "DT_FLOAT"}}}, {"name": "swa_model/batchnorm_2/sub", "op": "Const", "input": ["^swa_model/cond_5/Merge", "^swa_model/cond_5/Merge_1"], "attr": {"dtype": {"type": "DT_FLOAT"}, "value": {"tensor": {"dtype": "DT_FLOAT", "tensorShape": {"dim": [{"size": "96"}]}}}}}, {"name": "swa_model/batchnorm_2/Rsqrt", "op": "Const", "input": ["^swa_model/cond_5/Merge_1"], "attr": {"value": {"tensor": {"dtype": "DT_FLOAT", "tensorShape": {"dim": [{"size": "96"}]}}}, "dtype": {"type": "DT_FLOAT"}}}, {"name": "swa_model/batchnorm_2/mul", "op": "Mul", "input": ["swa_model/add_2", "swa_model/batchnorm_2/Rsqrt"], "attr": {"T": {"type": "DT_FLOAT"}}}, {"name": "swa_model/batchnorm_2/add_1", "op": "Add", "input": ["swa_model/batchnorm_2/mul", "swa_model/batchnorm_2/sub"], "attr": {"T": {"type": "DT_FLOAT"}}}, {"name": "swa_model/Relu_2", "op": "Relu", "input": ["swa_model/batchnorm_2/add_1"], "attr": {"T": {"type": "DT_FLOAT"}}}, {"name": "swa_model/Conv2D_3", "op": "Conv2D", "input": ["swa_model/Relu_2", "swa_model/rconv2/w1"], "attr": {"data_format": {"s": "TkhXQw=="}, "strides": {"list": {"i": ["1", "1", "1", "1"]}}, "use_cudnn_on_gpu": {"b": true}, "explicit_paddings": {"list": {}}, "padding": {"s": "U0FNRQ=="}, "dilations": {"list": {"i": ["1", "1", "1", "1"]}}, "T": {"type": "DT_FLOAT"}}}, {"name": "swa_model/Mean_6", "op": "Mean", "input": ["swa_model/Conv2D_3", "swa_model/Tensordot_4/free"], "attr": {"T": {"type": "DT_FLOAT"}, "Tidx": {"type": "DT_INT32"}, "keep_dims": {"b": false}}}, {"name": "swa_model/sub_3", "op": "SquaredDifference", "input": ["swa_model/Conv2D_3", "swa_model/Mean_6"], "attr": {"T": {"type": "DT_FLOAT"}}}, {"name": "swa_model/cond_6/Switch_1", "op": "Switch", "input": ["swa_model/Mean_6", "swa_model/Const"], "attr": {"T": {"type": "DT_FLOAT"}}}, {"name": "swa_model/Mean_7", "op": "Mean", "input": ["swa_model/sub_3", "swa_model/Tensordot_4/free"], "attr": {"T": {"type": "DT_FLOAT"}, "Tidx": {"type": "DT_INT32"}, "keep_dims": {"b": false}}}, {"name": "swa_model/cond_6/Merge", "op": "Merge", "input": ["ConstantFolding/swa_model/cond_6/Switch_3-folded-0", "swa_model/cond_6/Switch_1:1"], "attr": {"T": {"type": "DT_FLOAT"}, "N": {"i": "2"}}}, {"name": "swa_model/cond_6/Switch_2", "op": "Switch", "input": ["swa_model/Mean_7", "swa_model/Const"], "attr": {"T": {"type": "DT_FLOAT"}}}, {"name": "swa_model/cond_6/Merge_1", "op": "Merge", "input": ["ConstantFolding/swa_model/cond_6/Switch_4-folded-0", "swa_model/cond_6/Switch_2:1"], "attr": {"T": {"type": "DT_FLOAT"}, "N": {"i": "2"}}}, {"name": "swa_model/batchnorm_3/sub", "op": "Const", "input": ["^swa_model/cond_6/Merge", "^swa_model/cond_6/Merge_1"], "attr": {"value": {"tensor": {"dtype": "DT_FLOAT", "tensorShape": {"dim": [{"size": "96"}]}}}, "dtype": {"type": "DT_FLOAT"}}}, {"name": "swa_model/batchnorm_3/Rsqrt", "op": "Const", "input": ["^swa_model/cond_6/Merge_1"], "attr": {"value": {"tensor": {"dtype": "DT_FLOAT", "tensorShape": {"dim": [{"size": "96"}]}}}, "dtype": {"type": "DT_FLOAT"}}}, {"name": "swa_model/batchnorm_3/mul", "op": "Mul", "input": ["swa_model/Conv2D_3", "swa_model/batchnorm_3/Rsqrt"], "attr": {"T": {"type": "DT_FLOAT"}}}, {"name": "swa_model/batchnorm_3/add_1", "op": "Add", "input": ["swa_model/batchnorm_3/mul", "swa_model/batchnorm_3/sub"], "attr": {"T": {"type": "DT_FLOAT"}}}, {"name": "swa_model/Relu_3", "op": "Relu", "input": ["swa_model/batchnorm_3/add_1"], "attr": {"T": {"type": "DT_FLOAT"}}}, {"name": "swa_model/Conv2D_4", "op": "Conv2D", "input": ["swa_model/Relu_3", "swa_model/rconv2/w2"], "attr": {"padding": {"s": "U0FNRQ=="}, "dilations": {"list": {"i": ["1", "1", "1", "1"]}}, "T": {"type": "DT_FLOAT"}, "data_format": {"s": "TkhXQw=="}, "strides": {"list": {"i": ["1", "1", "1", "1"]}}, "explicit_paddings": {"list": {}}, "use_cudnn_on_gpu": {"b": true}}}, {"name": "swa_model/add_3", "op": "Add", "input": ["swa_model/Conv2D_4", "swa_model/add_2"], "attr": {"T": {"type": "DT_FLOAT"}}}, {"name": "swa_model/Mean_8", "op": "Mean", "input": ["swa_model/add_3", "swa_model/Tensordot_4/free"], "attr": {"Tidx": {"type": "DT_INT32"}, "keep_dims": {"b": false}, "T": {"type": "DT_FLOAT"}}}, {"name": "swa_model/sub_4", "op": "SquaredDifference", "input": ["swa_model/Mean_8", "swa_model/add_3"], "attr": {"T": {"type": "DT_FLOAT"}}}, {"name": "swa_model/cond_7/Switch_1", "op": "Switch", "input": ["swa_model/Mean_8", "swa_model/Const"], "attr": {"T": {"type": "DT_FLOAT"}}}, {"name": "swa_model/Mean_9", "op": "Mean", "input": ["swa_model/sub_4", "swa_model/Tensordot_4/free"], "attr": {"T": {"type": "DT_FLOAT"}, "Tidx": {"type": "DT_INT32"}, "keep_dims": {"b": false}}}, {"name": "swa_model/cond_7/Merge", "op": "Merge", "input": ["ConstantFolding/swa_model/cond_7/Switch_3-folded-0", "swa_model/cond_7/Switch_1:1"], "attr": {"N": {"i": "2"}, "T": {"type": "DT_FLOAT"}}}, {"name": "swa_model/cond_7/Switch_2", "op": "Switch", "input": ["swa_model/Mean_9", "swa_model/Const"], "attr": {"T": {"type": "DT_FLOAT"}}}, {"name": "swa_model/cond_7/Merge_1", "op": "Merge", "input": ["ConstantFolding/swa_model/cond_7/Switch_4-folded-0", "swa_model/cond_7/Switch_2:1"], "attr": {"T": {"type": "DT_FLOAT"}, "N": {"i": "2"}}}, {"name": "swa_model/batchnorm_4/sub", "op": "Const", "input": ["^swa_model/cond_7/Merge", "^swa_model/cond_7/Merge_1"], "attr": {"dtype": {"type": "DT_FLOAT"}, "value": {"tensor": {"dtype": "DT_FLOAT", "tensorShape": {"dim": [{"size": "96"}]}}}}}, {"name": "swa_model/batchnorm_4/Rsqrt", "op": "Const", "input": ["^swa_model/cond_7/Merge_1"], "attr": {"value": {"tensor": {"dtype": "DT_FLOAT", "tensorShape": {"dim": [{"size": "96"}]}}}, "dtype": {"type": "DT_FLOAT"}}}, {"name": "swa_model/batchnorm_4/mul", "op": "Mul", "input": ["swa_model/add_3", "swa_model/batchnorm_4/Rsqrt"], "attr": {"T": {"type": "DT_FLOAT"}}}, {"name": "swa_model/batchnorm_4/add_1", "op": "Add", "input": ["swa_model/batchnorm_4/mul", "swa_model/batchnorm_4/sub"], "attr": {"T": {"type": "DT_FLOAT"}}}, {"name": "swa_model/Relu_4", "op": "Relu", "input": ["swa_model/batchnorm_4/add_1"], "attr": {"T": {"type": "DT_FLOAT"}}}, {"name": "swa_model/Conv2D_6", "op": "Conv2D", "input": ["swa_model/Relu_4", "swa_model/rconv3/w1b"], "attr": {"dilations": {"list": {"i": ["1", "1", "1", "1"]}}, "T": {"type": "DT_FLOAT"}, "data_format": {"s": "TkhXQw=="}, "strides": {"list": {"i": ["1", "1", "1", "1"]}}, "use_cudnn_on_gpu": {"b": true}, "explicit_paddings": {"list": {}}, "padding": {"s": "U0FNRQ=="}}}, {"name": "swa_model/Conv2D_5", "op": "Conv2D", "input": ["swa_model/Relu_4", "swa_model/rconv3/w1a"], "attr": {"T": {"type": "DT_FLOAT"}, "data_format": {"s": "TkhXQw=="}, "strides": {"list": {"i": ["1", "1", "1", "1"]}}, "explicit_paddings": {"list": {}}, "use_cudnn_on_gpu": {"b": true}, "padding": {"s": "U0FNRQ=="}, "dilations": {"list": {"i": ["1", "1", "1", "1"]}}}}, {"name": "swa_model/Mean_10", "op": "Mean", "input": ["swa_model/Conv2D_6", "swa_model/Tensordot_4/free"], "attr": {"Tidx": {"type": "DT_INT32"}, "keep_dims": {"b": false}, "T": {"type": "DT_FLOAT"}}}, {"name": "swa_model/sub_5", "op": "SquaredDifference", "input": ["swa_model/Conv2D_6", "swa_model/Mean_10"], "attr": {"T": {"type": "DT_FLOAT"}}}, {"name": "swa_model/cond_8/Switch_1", "op": "Switch", "input": ["swa_model/Mean_10", "swa_model/Const"], "attr": {"T": {"type": "DT_FLOAT"}}}, {"name": "swa_model/Mean_11", "op": "Mean", "input": ["swa_model/sub_5", "swa_model/Tensordot_4/free"], "attr": {"Tidx": {"type": "DT_INT32"}, "keep_dims": {"b": false}, "T": {"type": "DT_FLOAT"}}}, {"name": "swa_model/cond_8/Merge", "op": "Merge", "input": ["ConstantFolding/swa_model/cond_8/Switch_3-folded-0", "swa_model/cond_8/Switch_1:1"], "attr": {"T": {"type": "DT_FLOAT"}, "N": {"i": "2"}}}, {"name": "swa_model/cond_8/Switch_2", "op": "Switch", "input": ["swa_model/Mean_11", "swa_model/Const"], "attr": {"T": {"type": "DT_FLOAT"}}}, {"name": "swa_model/cond_8/Merge_1", "op": "Merge", "input": ["ConstantFolding/swa_model/cond_8/Switch_4-folded-0", "swa_model/cond_8/Switch_2:1"], "attr": {"T": {"type": "DT_FLOAT"}, "N": {"i": "2"}}}, {"name": "swa_model/batchnorm_5/sub", "op": "Const", "input": ["^swa_model/cond_8/Merge", "^swa_model/cond_8/Merge_1"], "attr": {"value": {"tensor": {"dtype": "DT_FLOAT", "tensorShape": {"dim": [{"size": "32"}]}}}, "dtype": {"type": "DT_FLOAT"}}}, {"name": "swa_model/batchnorm_5/Rsqrt", "op": "Const", "input": ["^swa_model/cond_8/Merge_1"], "attr": {"value": {"tensor": {"dtype": "DT_FLOAT", "tensorShape": {"dim": [{"size": "32"}]}}}, "dtype": {"type": "DT_FLOAT"}}}, {"name": "swa_model/batchnorm_5/mul", "op": "Mul", "input": ["swa_model/Conv2D_6", "swa_model/batchnorm_5/Rsqrt"], "attr": {"T": {"type": "DT_FLOAT"}}}, {"name": "swa_model/batchnorm_5/add_1", "op": "Add", "input": ["swa_model/batchnorm_5/mul", "swa_model/batchnorm_5/sub"], "attr": {"T": {"type": "DT_FLOAT"}}}, {"name": "swa_model/Relu_5", "op": "Relu", "input": ["swa_model/batchnorm_5/add_1"], "attr": {"T": {"type": "DT_FLOAT"}}}, {"name": "swa_model/Max", "op": "Max", "input": ["swa_model/Relu_5", "swa_model/Mean_34/reduction_indices"], "attr": {"Tidx": {"type": "DT_INT32"}, "keep_dims": {"b": true}, "T": {"type": "DT_FLOAT"}}}, {"name": "swa_model/Mean_12", "op": "Mean", "input": ["swa_model/Relu_5", "swa_model/Mean_34/reduction_indices"], "attr": {"T": {"type": "DT_FLOAT"}, "Tidx": {"type": "DT_INT32"}, "keep_dims": {"b": true}}}, {"name": "swa_model/mul_9", "op": "Mul", "input": ["swa_model/Mean_12", "swa_model/truediv_2"], "attr": {"T": {"type": "DT_FLOAT"}}}, {"name": "swa_model/concat", "op": "ConcatV2", "input": ["swa_model/Mean_12", "swa_model/mul_9", "swa_model/Max", "swa_model/concat_2/axis"], "attr": {"T": {"type": "DT_FLOAT"}, "N": {"i": "3"}, "Tidx": {"type": "DT_INT32"}}}, {"name": "swa_model/Tensordot_2/Shape", "op": "Shape", "input": ["swa_model/concat"], "attr": {"out_type": {"type": "DT_INT32"}, "T": {"type": "DT_FLOAT"}}}, {"name": "swa_model/Tensordot_2/GatherV2", "op": "GatherV2", "input": ["swa_model/Tensordot_2/Shape", "swa_model/Tensordot_4/free", "swa_model/Tensordot_4/GatherV2_1/axis"], "attr": {"Taxis": {"type": "DT_INT32"}, "batch_dims": {"i": "0"}, "Tindices": {"type": "DT_INT32"}, "Tparams": {"type": "DT_INT32"}}}, {"name": "swa_model/Tensordot_2/GatherV2_1", "op": "GatherV2", "input": ["swa_model/Tensordot_2/Shape", "swa_model/strided_slice_11/stack_1", "swa_model/Tensordot_4/GatherV2_1/axis"], "attr": {"batch_dims": {"i": "0"}, "Tindices": {"type": "DT_INT32"}, "Tparams": {"type": "DT_INT32"}, "Taxis": {"type": "DT_INT32"}}}, {"name": "swa_model/Tensordot_2/concat_1", "op": "ConcatV2", "input": ["swa_model/Tensordot_2/GatherV2", "swa_model/Tensordot_2/Const_2", "swa_model/Tensordot_4/GatherV2_1/axis"], "attr": {"Tidx": {"type": "DT_INT32"}, "T": {"type": "DT_INT32"}, "N": {"i": "2"}}}, {"name": "swa_model/Tensordot_2/Prod", "op": "Prod", "input": ["swa_model/Tensordot_2/GatherV2", "swa_model/strided_slice_9/stack"], "attr": {"Tidx": {"type": "DT_INT32"}, "keep_dims": {"b": false}, "T": {"type": "DT_INT32"}}}, {"name": "swa_model/Tensordot_2/Prod_1", "op": "Prod", "input": ["swa_model/Tensordot_2/GatherV2_1", "swa_model/strided_slice_9/stack"], "attr": {"T": {"type": "DT_INT32"}, "Tidx": {"type": "DT_INT32"}, "keep_dims": {"b": false}}}, {"name": "swa_model/Tensordot_2/stack", "op": "Pack", "input": ["swa_model/Tensordot_2/Prod", "swa_model/Tensordot_2/Prod_1"], "attr": {"T": {"type": "DT_INT32"}, "axis": {"i": "0"}, "N": {"i": "2"}}}, {"name": "swa_model/Tensordot_2/Reshape", "op": "Reshape", "input": ["swa_model/concat", "swa_model/Tensordot_2/stack"], "attr": {"Tshape": {"type": "DT_INT32"}, "T": {"type": "DT_FLOAT"}}}, {"name": "swa_model/Tensordot_2/MatMul", "op": "MatMul", "input": ["swa_model/Tensordot_2/Reshape", "swa_model/Tensordot_2/Reshape_1"], "attr": {"transpose_a": {"b": false}, "transpose_b": {"b": false}, "T": {"type": "DT_FLOAT"}}}, {"name": "swa_model/Tensordot_2", "op": "Reshape", "input": ["swa_model/Tensordot_2/MatMul", "swa_model/Tensordot_2/concat_1"], "attr": {"T": {"type": "DT_FLOAT"}, "Tshape": {"type": "DT_INT32"}}}, {"name": "swa_model/add_4", "op": "Add", "input": ["swa_model/Conv2D_5", "swa_model/Tensordot_2"], "attr": {"T": {"type": "DT_FLOAT"}}}, {"name": "swa_model/Mean_13", "op": "Mean", "input": ["swa_model/add_4", "swa_model/Tensordot_4/free"], "attr": {"Tidx": {"type": "DT_INT32"}, "keep_dims": {"b": false}, "T": {"type": "DT_FLOAT"}}}, {"name": "swa_model/sub_7", "op": "SquaredDifference", "input": ["swa_model/Mean_13", "swa_model/add_4"], "attr": {"T": {"type": "DT_FLOAT"}}}, {"name": "swa_model/cond_9/Switch_1", "op": "Switch", "input": ["swa_model/Mean_13", "swa_model/Const"], "attr": {"T": {"type": "DT_FLOAT"}}}, {"name": "swa_model/Mean_14", "op": "Mean", "input": ["swa_model/sub_7", "swa_model/Tensordot_4/free"], "attr": {"Tidx": {"type": "DT_INT32"}, "keep_dims": {"b": false}, "T": {"type": "DT_FLOAT"}}}, {"name": "swa_model/cond_9/Merge", "op": "Merge", "input": ["ConstantFolding/swa_model/cond_9/Switch_3-folded-0", "swa_model/cond_9/Switch_1:1"], "attr": {"N": {"i": "2"}, "T": {"type": "DT_FLOAT"}}}, {"name": "swa_model/cond_9/Switch_2", "op": "Switch", "input": ["swa_model/Mean_14", "swa_model/Const"], "attr": {"T": {"type": "DT_FLOAT"}}}, {"name": "swa_model/cond_9/Merge_1", "op": "Merge", "input": ["ConstantFolding/swa_model/cond_9/Switch_4-folded-0", "swa_model/cond_9/Switch_2:1"], "attr": {"T": {"type": "DT_FLOAT"}, "N": {"i": "2"}}}, {"name": "swa_model/batchnorm_6/sub", "op": "Const", "input": ["^swa_model/cond_9/Merge", "^swa_model/cond_9/Merge_1"], "attr": {"value": {"tensor": {"dtype": "DT_FLOAT", "tensorShape": {"dim": [{"size": "64"}]}}}, "dtype": {"type": "DT_FLOAT"}}}, {"name": "swa_model/batchnorm_6/Rsqrt", "op": "Const", "input": ["^swa_model/cond_9/Merge_1"], "attr": {"value": {"tensor": {"dtype": "DT_FLOAT", "tensorShape": {"dim": [{"size": "64"}]}}}, "dtype": {"type": "DT_FLOAT"}}}, {"name": "swa_model/batchnorm_6/mul", "op": "Mul", "input": ["swa_model/add_4", "swa_model/batchnorm_6/Rsqrt"], "attr": {"T": {"type": "DT_FLOAT"}}}, {"name": "swa_model/batchnorm_6/add_1", "op": "Add", "input": ["swa_model/batchnorm_6/mul", "swa_model/batchnorm_6/sub"], "attr": {"T": {"type": "DT_FLOAT"}}}, {"name": "swa_model/Relu_6", "op": "Relu", "input": ["swa_model/batchnorm_6/add_1"], "attr": {"T": {"type": "DT_FLOAT"}}}, {"name": "swa_model/Conv2D_7", "op": "Conv2D", "input": ["swa_model/Relu_6", "swa_model/rconv3/w2"], "attr": {"dilations": {"list": {"i": ["1", "1", "1", "1"]}}, "T": {"type": "DT_FLOAT"}, "data_format": {"s": "TkhXQw=="}, "strides": {"list": {"i": ["1", "1", "1", "1"]}}, "use_cudnn_on_gpu": {"b": true}, "explicit_paddings": {"list": {}}, "padding": {"s": "U0FNRQ=="}}}, {"name": "swa_model/add_5", "op": "Add", "input": ["swa_model/Conv2D_7", "swa_model/add_3"], "attr": {"T": {"type": "DT_FLOAT"}}}, {"name": "swa_model/Mean_15", "op": "Mean", "input": ["swa_model/add_5", "swa_model/Tensordot_4/free"], "attr": {"T": {"type": "DT_FLOAT"}, "Tidx": {"type": "DT_INT32"}, "keep_dims": {"b": false}}}, {"name": "swa_model/sub_8", "op": "SquaredDifference", "input": ["swa_model/Mean_15", "swa_model/add_5"], "attr": {"T": {"type": "DT_FLOAT"}}}, {"name": "swa_model/cond_10/Switch_1", "op": "Switch", "input": ["swa_model/Mean_15", "swa_model/Const"], "attr": {"T": {"type": "DT_FLOAT"}}}, {"name": "swa_model/Mean_16", "op": "Mean", "input": ["swa_model/sub_8", "swa_model/Tensordot_4/free"], "attr": {"Tidx": {"type": "DT_INT32"}, "keep_dims": {"b": false}, "T": {"type": "DT_FLOAT"}}}, {"name": "swa_model/cond_10/Merge", "op": "Merge", "input": ["ConstantFolding/swa_model/cond_10/Switch_3-folded-0", "swa_model/cond_10/Switch_1:1"], "attr": {"T": {"type": "DT_FLOAT"}, "N": {"i": "2"}}}, {"name": "swa_model/cond_10/Switch_2", "op": "Switch", "input": ["swa_model/Mean_16", "swa_model/Const"], "attr": {"T": {"type": "DT_FLOAT"}}}, {"name": "swa_model/cond_10/Merge_1", "op": "Merge", "input": ["ConstantFolding/swa_model/cond_10/Switch_4-folded-0", "swa_model/cond_10/Switch_2:1"], "attr": {"N": {"i": "2"}, "T": {"type": "DT_FLOAT"}}}, {"name": "swa_model/batchnorm_7/sub", "op": "Const", "input": ["^swa_model/cond_10/Merge", "^swa_model/cond_10/Merge_1"], "attr": {"value": {"tensor": {"dtype": "DT_FLOAT", "tensorShape": {"dim": [{"size": "96"}]}}}, "dtype": {"type": "DT_FLOAT"}}}, {"name": "swa_model/batchnorm_7/Rsqrt", "op": "Const", "input": ["^swa_model/cond_10/Merge_1"], "attr": {"value": {"tensor": {"dtype": "DT_FLOAT", "tensorShape": {"dim": [{"size": "96"}]}}}, "dtype": {"type": "DT_FLOAT"}}}, {"name": "swa_model/batchnorm_7/mul", "op": "Mul", "input": ["swa_model/add_5", "swa_model/batchnorm_7/Rsqrt"], "attr": {"T": {"type": "DT_FLOAT"}}}, {"name": "swa_model/batchnorm_7/add_1", "op": "Add", "input": ["swa_model/batchnorm_7/mul", "swa_model/batchnorm_7/sub"], "attr": {"T": {"type": "DT_FLOAT"}}}, {"name": "swa_model/Relu_7", "op": "Relu", "input": ["swa_model/batchnorm_7/add_1"], "attr": {"T": {"type": "DT_FLOAT"}}}, {"name": "swa_model/Conv2D_8", "op": "Conv2D", "input": ["swa_model/Relu_7", "swa_model/rconv4/w1"], "attr": {"dilations": {"list": {"i": ["1", "1", "1", "1"]}}, "T": {"type": "DT_FLOAT"}, "strides": {"list": {"i": ["1", "1", "1", "1"]}}, "data_format": {"s": "TkhXQw=="}, "use_cudnn_on_gpu": {"b": true}, "explicit_paddings": {"list": {}}, "padding": {"s": "U0FNRQ=="}}}, {"name": "swa_model/Mean_17", "op": "Mean", "input": ["swa_model/Conv2D_8", "swa_model/Tensordot_4/free"], "attr": {"T": {"type": "DT_FLOAT"}, "Tidx": {"type": "DT_INT32"}, "keep_dims": {"b": false}}}, {"name": "swa_model/sub_9", "op": "SquaredDifference", "input": ["swa_model/Conv2D_8", "swa_model/Mean_17"], "attr": {"T": {"type": "DT_FLOAT"}}}, {"name": "swa_model/cond_11/Switch_1", "op": "Switch", "input": ["swa_model/Mean_17", "swa_model/Const"], "attr": {"T": {"type": "DT_FLOAT"}}}, {"name": "swa_model/Mean_18", "op": "Mean", "input": ["swa_model/sub_9", "swa_model/Tensordot_4/free"], "attr": {"Tidx": {"type": "DT_INT32"}, "keep_dims": {"b": false}, "T": {"type": "DT_FLOAT"}}}, {"name": "swa_model/cond_11/Merge", "op": "Merge", "input": ["ConstantFolding/swa_model/cond_11/Switch_3-folded-0", "swa_model/cond_11/Switch_1:1"], "attr": {"T": {"type": "DT_FLOAT"}, "N": {"i": "2"}}}, {"name": "swa_model/cond_11/Switch_2", "op": "Switch", "input": ["swa_model/Mean_18", "swa_model/Const"], "attr": {"T": {"type": "DT_FLOAT"}}}, {"name": "swa_model/cond_11/Merge_1", "op": "Merge", "input": ["ConstantFolding/swa_model/cond_11/Switch_4-folded-0", "swa_model/cond_11/Switch_2:1"], "attr": {"N": {"i": "2"}, "T": {"type": "DT_FLOAT"}}}, {"name": "swa_model/batchnorm_8/sub", "op": "Const", "input": ["^swa_model/cond_11/Merge", "^swa_model/cond_11/Merge_1"], "attr": {"value": {"tensor": {"dtype": "DT_FLOAT", "tensorShape": {"dim": [{"size": "96"}]}}}, "dtype": {"type": "DT_FLOAT"}}}, {"name": "swa_model/batchnorm_8/Rsqrt", "op": "Const", "input": ["^swa_model/cond_11/Merge_1"], "attr": {"value": {"tensor": {"dtype": "DT_FLOAT", "tensorShape": {"dim": [{"size": "96"}]}}}, "dtype": {"type": "DT_FLOAT"}}}, {"name": "swa_model/batchnorm_8/mul", "op": "Mul", "input": ["swa_model/Conv2D_8", "swa_model/batchnorm_8/Rsqrt"], "attr": {"T": {"type": "DT_FLOAT"}}}, {"name": "swa_model/batchnorm_8/add_1", "op": "Add", "input": ["swa_model/batchnorm_8/mul", "swa_model/batchnorm_8/sub"], "attr": {"T": {"type": "DT_FLOAT"}}}, {"name": "swa_model/Relu_8", "op": "Relu", "input": ["swa_model/batchnorm_8/add_1"], "attr": {"T": {"type": "DT_FLOAT"}}}, {"name": "swa_model/Conv2D_9", "op": "Conv2D", "input": ["swa_model/Relu_8", "swa_model/rconv4/w2"], "attr": {"dilations": {"list": {"i": ["1", "1", "1", "1"]}}, "T": {"type": "DT_FLOAT"}, "strides": {"list": {"i": ["1", "1", "1", "1"]}}, "data_format": {"s": "TkhXQw=="}, "explicit_paddings": {"list": {}}, "use_cudnn_on_gpu": {"b": true}, "padding": {"s": "U0FNRQ=="}}}, {"name": "swa_model/add_6", "op": "Add", "input": ["swa_model/Conv2D_9", "swa_model/add_5"], "attr": {"T": {"type": "DT_FLOAT"}}}, {"name": "swa_model/Mean_19", "op": "Mean", "input": ["swa_model/add_6", "swa_model/Tensordot_4/free"], "attr": {"T": {"type": "DT_FLOAT"}, "Tidx": {"type": "DT_INT32"}, "keep_dims": {"b": false}}}, {"name": "swa_model/sub_10", "op": "SquaredDifference", "input": ["swa_model/Mean_19", "swa_model/add_6"], "attr": {"T": {"type": "DT_FLOAT"}}}, {"name": "swa_model/cond_12/Switch_1", "op": "Switch", "input": ["swa_model/Mean_19", "swa_model/Const"], "attr": {"T": {"type": "DT_FLOAT"}}}, {"name": "swa_model/Mean_20", "op": "Mean", "input": ["swa_model/sub_10", "swa_model/Tensordot_4/free"], "attr": {"T": {"type": "DT_FLOAT"}, "Tidx": {"type": "DT_INT32"}, "keep_dims": {"b": false}}}, {"name": "swa_model/cond_12/Merge", "op": "Merge", "input": ["ConstantFolding/swa_model/cond_12/Switch_3-folded-0", "swa_model/cond_12/Switch_1:1"], "attr": {"T": {"type": "DT_FLOAT"}, "N": {"i": "2"}}}, {"name": "swa_model/cond_12/Switch_2", "op": "Switch", "input": ["swa_model/Mean_20", "swa_model/Const"], "attr": {"T": {"type": "DT_FLOAT"}}}, {"name": "swa_model/cond_12/Merge_1", "op": "Merge", "input": ["ConstantFolding/swa_model/cond_12/Switch_4-folded-0", "swa_model/cond_12/Switch_2:1"], "attr": {"T": {"type": "DT_FLOAT"}, "N": {"i": "2"}}}, {"name": "swa_model/batchnorm_9/sub", "op": "Const", "input": ["^swa_model/cond_12/Merge", "^swa_model/cond_12/Merge_1"], "attr": {"value": {"tensor": {"dtype": "DT_FLOAT", "tensorShape": {"dim": [{"size": "96"}]}}}, "dtype": {"type": "DT_FLOAT"}}}, {"name": "swa_model/batchnorm_9/Rsqrt", "op": "Const", "input": ["^swa_model/cond_12/Merge_1"], "attr": {"dtype": {"type": "DT_FLOAT"}, "value": {"tensor": {"dtype": "DT_FLOAT", "tensorShape": {"dim": [{"size": "96"}]}}}}}, {"name": "swa_model/batchnorm_9/mul", "op": "Mul", "input": ["swa_model/add_6", "swa_model/batchnorm_9/Rsqrt"], "attr": {"T": {"type": "DT_FLOAT"}}}, {"name": "swa_model/batchnorm_9/add_1", "op": "Add", "input": ["swa_model/batchnorm_9/mul", "swa_model/batchnorm_9/sub"], "attr": {"T": {"type": "DT_FLOAT"}}}, {"name": "swa_model/Relu_9", "op": "Relu", "input": ["swa_model/batchnorm_9/add_1"], "attr": {"T": {"type": "DT_FLOAT"}}}, {"name": "swa_model/Conv2D_11", "op": "Conv2D", "input": ["swa_model/Relu_9", "swa_model/rconv5/w1b"], "attr": {"strides": {"list": {"i": ["1", "1", "1", "1"]}}, "data_format": {"s": "TkhXQw=="}, "explicit_paddings": {"list": {}}, "use_cudnn_on_gpu": {"b": true}, "padding": {"s": "U0FNRQ=="}, "dilations": {"list": {"i": ["1", "1", "1", "1"]}}, "T": {"type": "DT_FLOAT"}}}, {"name": "swa_model/Conv2D_10", "op": "Conv2D", "input": ["swa_model/Relu_9", "swa_model/rconv5/w1a"], "attr": {"padding": {"s": "U0FNRQ=="}, "dilations": {"list": {"i": ["1", "1", "1", "1"]}}, "T": {"type": "DT_FLOAT"}, "data_format": {"s": "TkhXQw=="}, "strides": {"list": {"i": ["1", "1", "1", "1"]}}, "use_cudnn_on_gpu": {"b": true}, "explicit_paddings": {"list": {}}}}, {"name": "swa_model/Mean_21", "op": "Mean", "input": ["swa_model/Conv2D_11", "swa_model/Tensordot_4/free"], "attr": {"Tidx": {"type": "DT_INT32"}, "keep_dims": {"b": false}, "T": {"type": "DT_FLOAT"}}}, {"name": "swa_model/sub_11", "op": "SquaredDifference", "input": ["swa_model/Conv2D_11", "swa_model/Mean_21"], "attr": {"T": {"type": "DT_FLOAT"}}}, {"name": "swa_model/cond_13/Switch_1", "op": "Switch", "input": ["swa_model/Mean_21", "swa_model/Const"], "attr": {"T": {"type": "DT_FLOAT"}}}, {"name": "swa_model/Mean_22", "op": "Mean", "input": ["swa_model/sub_11", "swa_model/Tensordot_4/free"], "attr": {"Tidx": {"type": "DT_INT32"}, "keep_dims": {"b": false}, "T": {"type": "DT_FLOAT"}}}, {"name": "swa_model/cond_13/Merge", "op": "Merge", "input": ["ConstantFolding/swa_model/cond_13/Switch_3-folded-0", "swa_model/cond_13/Switch_1:1"], "attr": {"T": {"type": "DT_FLOAT"}, "N": {"i": "2"}}}, {"name": "swa_model/cond_13/Switch_2", "op": "Switch", "input": ["swa_model/Mean_22", "swa_model/Const"], "attr": {"T": {"type": "DT_FLOAT"}}}, {"name": "swa_model/cond_13/Merge_1", "op": "Merge", "input": ["ConstantFolding/swa_model/cond_13/Switch_4-folded-0", "swa_model/cond_13/Switch_2:1"], "attr": {"N": {"i": "2"}, "T": {"type": "DT_FLOAT"}}}, {"name": "swa_model/batchnorm_10/sub", "op": "Const", "input": ["^swa_model/cond_13/Merge", "^swa_model/cond_13/Merge_1"], "attr": {"value": {"tensor": {"dtype": "DT_FLOAT", "tensorShape": {"dim": [{"size": "32"}]}}}, "dtype": {"type": "DT_FLOAT"}}}, {"name": "swa_model/batchnorm_10/Rsqrt", "op": "Const", "input": ["^swa_model/cond_13/Merge_1"], "attr": {"value": {"tensor": {"dtype": "DT_FLOAT", "tensorShape": {"dim": [{"size": "32"}]}}}, "dtype": {"type": "DT_FLOAT"}}}, {"name": "swa_model/batchnorm_10/mul", "op": "Mul", "input": ["swa_model/Conv2D_11", "swa_model/batchnorm_10/Rsqrt"], "attr": {"T": {"type": "DT_FLOAT"}}}, {"name": "swa_model/batchnorm_10/add_1", "op": "Add", "input": ["swa_model/batchnorm_10/mul", "swa_model/batchnorm_10/sub"], "attr": {"T": {"type": "DT_FLOAT"}}}, {"name": "swa_model/Relu_10", "op": "Relu", "input": ["swa_model/batchnorm_10/add_1"], "attr": {"T": {"type": "DT_FLOAT"}}}, {"name": "swa_model/Max_1", "op": "Max", "input": ["swa_model/Relu_10", "swa_model/Mean_34/reduction_indices"], "attr": {"Tidx": {"type": "DT_INT32"}, "keep_dims": {"b": true}, "T": {"type": "DT_FLOAT"}}}, {"name": "swa_model/Mean_23", "op": "Mean", "input": ["swa_model/Relu_10", "swa_model/Mean_34/reduction_indices"], "attr": {"Tidx": {"type": "DT_INT32"}, "keep_dims": {"b": true}, "T": {"type": "DT_FLOAT"}}}, {"name": "swa_model/mul_16", "op": "Mul", "input": ["swa_model/Mean_23", "swa_model/truediv_2"], "attr": {"T": {"type": "DT_FLOAT"}}}, {"name": "swa_model/concat_1", "op": "ConcatV2", "input": ["swa_model/Mean_23", "swa_model/mul_16", "swa_model/Max_1", "swa_model/concat_2/axis"], "attr": {"Tidx": {"type": "DT_INT32"}, "T": {"type": "DT_FLOAT"}, "N": {"i": "3"}}}, {"name": "swa_model/Tensordot_3/Shape", "op": "Shape", "input": ["swa_model/concat_1"], "attr": {"T": {"type": "DT_FLOAT"}, "out_type": {"type": "DT_INT32"}}}, {"name": "swa_model/Tensordot_3/GatherV2", "op": "GatherV2", "input": ["swa_model/Tensordot_3/Shape", "swa_model/Tensordot_4/free", "swa_model/Tensordot_4/GatherV2_1/axis"], "attr": {"Taxis": {"type": "DT_INT32"}, "batch_dims": {"i": "0"}, "Tindices": {"type": "DT_INT32"}, "Tparams": {"type": "DT_INT32"}}}, {"name": "swa_model/Tensordot_3/GatherV2_1", "op": "GatherV2", "input": ["swa_model/Tensordot_3/Shape", "swa_model/strided_slice_11/stack_1", "swa_model/Tensordot_4/GatherV2_1/axis"], "attr": {"Taxis": {"type": "DT_INT32"}, "batch_dims": {"i": "0"}, "Tindices": {"type": "DT_INT32"}, "Tparams": {"type": "DT_INT32"}}}, {"name": "swa_model/Tensordot_3/concat_1", "op": "ConcatV2", "input": ["swa_model/Tensordot_3/GatherV2", "swa_model/Tensordot_2/Const_2", "swa_model/Tensordot_4/GatherV2_1/axis"], "attr": {"Tidx": {"type": "DT_INT32"}, "T": {"type": "DT_INT32"}, "N": {"i": "2"}}}, {"name": "swa_model/Tensordot_3/Prod", "op": "Prod", "input": ["swa_model/Tensordot_3/GatherV2", "swa_model/strided_slice_9/stack"], "attr": {"T": {"type": "DT_INT32"}, "Tidx": {"type": "DT_INT32"}, "keep_dims": {"b": false}}}, {"name": "swa_model/Tensordot_3/Prod_1", "op": "Prod", "input": ["swa_model/Tensordot_3/GatherV2_1", "swa_model/strided_slice_9/stack"], "attr": {"T": {"type": "DT_INT32"}, "Tidx": {"type": "DT_INT32"}, "keep_dims": {"b": false}}}, {"name": "swa_model/Tensordot_3/stack", "op": "Pack", "input": ["swa_model/Tensordot_3/Prod", "swa_model/Tensordot_3/Prod_1"], "attr": {"T": {"type": "DT_INT32"}, "axis": {"i": "0"}, "N": {"i": "2"}}}, {"name": "swa_model/Tensordot_3/Reshape", "op": "Reshape", "input": ["swa_model/concat_1", "swa_model/Tensordot_3/stack"], "attr": {"Tshape": {"type": "DT_INT32"}, "T": {"type": "DT_FLOAT"}}}, {"name": "swa_model/Tensordot_3/MatMul", "op": "MatMul", "input": ["swa_model/Tensordot_3/Reshape", "swa_model/Tensordot_3/Reshape_1"], "attr": {"T": {"type": "DT_FLOAT"}, "transpose_a": {"b": false}, "transpose_b": {"b": false}}}, {"name": "swa_model/Tensordot_3", "op": "Reshape", "input": ["swa_model/Tensordot_3/MatMul", "swa_model/Tensordot_3/concat_1"], "attr": {"T": {"type": "DT_FLOAT"}, "Tshape": {"type": "DT_INT32"}}}, {"name": "swa_model/add_7", "op": "Add", "input": ["swa_model/Conv2D_10", "swa_model/Tensordot_3"], "attr": {"T": {"type": "DT_FLOAT"}}}, {"name": "swa_model/Mean_24", "op": "Mean", "input": ["swa_model/add_7", "swa_model/Tensordot_4/free"], "attr": {"T": {"type": "DT_FLOAT"}, "Tidx": {"type": "DT_INT32"}, "keep_dims": {"b": false}}}, {"name": "swa_model/sub_13", "op": "SquaredDifference", "input": ["swa_model/Mean_24", "swa_model/add_7"], "attr": {"T": {"type": "DT_FLOAT"}}}, {"name": "swa_model/cond_14/Switch_1", "op": "Switch", "input": ["swa_model/Mean_24", "swa_model/Const"], "attr": {"T": {"type": "DT_FLOAT"}}}, {"name": "swa_model/Mean_25", "op": "Mean", "input": ["swa_model/sub_13", "swa_model/Tensordot_4/free"], "attr": {"Tidx": {"type": "DT_INT32"}, "keep_dims": {"b": false}, "T": {"type": "DT_FLOAT"}}}, {"name": "swa_model/cond_14/Merge", "op": "Merge", "input": ["ConstantFolding/swa_model/cond_14/Switch_3-folded-0", "swa_model/cond_14/Switch_1:1"], "attr": {"T": {"type": "DT_FLOAT"}, "N": {"i": "2"}}}, {"name": "swa_model/cond_14/Switch_2", "op": "Switch", "input": ["swa_model/Mean_25", "swa_model/Const"], "attr": {"T": {"type": "DT_FLOAT"}}}, {"name": "swa_model/cond_14/Merge_1", "op": "Merge", "input": ["ConstantFolding/swa_model/cond_14/Switch_4-folded-0", "swa_model/cond_14/Switch_2:1"], "attr": {"N": {"i": "2"}, "T": {"type": "DT_FLOAT"}}}, {"name": "swa_model/batchnorm_11/sub", "op": "Const", "input": ["^swa_model/cond_14/Merge", "^swa_model/cond_14/Merge_1"], "attr": {"value": {"tensor": {"dtype": "DT_FLOAT", "tensorShape": {"dim": [{"size": "64"}]}}}, "dtype": {"type": "DT_FLOAT"}}}, {"name": "swa_model/batchnorm_11/Rsqrt", "op": "Const", "input": ["^swa_model/cond_14/Merge_1"], "attr": {"value": {"tensor": {"dtype": "DT_FLOAT", "tensorShape": {"dim": [{"size": "64"}]}}}, "dtype": {"type": "DT_FLOAT"}}}, {"name": "swa_model/batchnorm_11/mul", "op": "Mul", "input": ["swa_model/add_7", "swa_model/batchnorm_11/Rsqrt"], "attr": {"T": {"type": "DT_FLOAT"}}}, {"name": "swa_model/batchnorm_11/add_1", "op": "Add", "input": ["swa_model/batchnorm_11/mul", "swa_model/batchnorm_11/sub"], "attr": {"T": {"type": "DT_FLOAT"}}}, {"name": "swa_model/Relu_11", "op": "Relu", "input": ["swa_model/batchnorm_11/add_1"], "attr": {"T": {"type": "DT_FLOAT"}}}, {"name": "swa_model/Conv2D_12", "op": "Conv2D", "input": ["swa_model/Relu_11", "swa_model/rconv5/w2"], "attr": {"T": {"type": "DT_FLOAT"}, "data_format": {"s": "TkhXQw=="}, "strides": {"list": {"i": ["1", "1", "1", "1"]}}, "explicit_paddings": {"list": {}}, "use_cudnn_on_gpu": {"b": true}, "padding": {"s": "U0FNRQ=="}, "dilations": {"list": {"i": ["1", "1", "1", "1"]}}}}, {"name": "swa_model/add_8", "op": "Add", "input": ["swa_model/Conv2D_12", "swa_model/add_6"], "attr": {"T": {"type": "DT_FLOAT"}}}, {"name": "swa_model/Mean_26", "op": "Mean", "input": ["swa_model/add_8", "swa_model/Tensordot_4/free"], "attr": {"T": {"type": "DT_FLOAT"}, "Tidx": {"type": "DT_INT32"}, "keep_dims": {"b": false}}}, {"name": "swa_model/sub_14", "op": "SquaredDifference", "input": ["swa_model/Mean_26", "swa_model/add_8"], "attr": {"T": {"type": "DT_FLOAT"}}}, {"name": "swa_model/cond_15/Switch_1", "op": "Switch", "input": ["swa_model/Mean_26", "swa_model/Const"], "attr": {"T": {"type": "DT_FLOAT"}}}, {"name": "swa_model/Mean_27", "op": "Mean", "input": ["swa_model/sub_14", "swa_model/Tensordot_4/free"], "attr": {"Tidx": {"type": "DT_INT32"}, "keep_dims": {"b": false}, "T": {"type": "DT_FLOAT"}}}, {"name": "swa_model/cond_15/Merge", "op": "Merge", "input": ["ConstantFolding/swa_model/cond_15/Switch_3-folded-0", "swa_model/cond_15/Switch_1:1"], "attr": {"T": {"type": "DT_FLOAT"}, "N": {"i": "2"}}}, {"name": "swa_model/cond_15/Switch_2", "op": "Switch", "input": ["swa_model/Mean_27", "swa_model/Const"], "attr": {"T": {"type": "DT_FLOAT"}}}, {"name": "swa_model/cond_15/Merge_1", "op": "Merge", "input": ["ConstantFolding/swa_model/cond_15/Switch_4-folded-0", "swa_model/cond_15/Switch_2:1"], "attr": {"T": {"type": "DT_FLOAT"}, "N": {"i": "2"}}}, {"name": "swa_model/batchnorm_12/sub", "op": "Const", "input": ["^swa_model/cond_15/Merge", "^swa_model/cond_15/Merge_1"], "attr": {"value": {"tensor": {"dtype": "DT_FLOAT", "tensorShape": {"dim": [{"size": "96"}]}}}, "dtype": {"type": "DT_FLOAT"}}}, {"name": "swa_model/batchnorm_12/Rsqrt", "op": "Const", "input": ["^swa_model/cond_15/Merge_1"], "attr": {"value": {"tensor": {"dtype": "DT_FLOAT", "tensorShape": {"dim": [{"size": "96"}]}}}, "dtype": {"type": "DT_FLOAT"}}}, {"name": "swa_model/batchnorm_12/mul", "op": "Mul", "input": ["swa_model/add_8", "swa_model/batchnorm_12/Rsqrt"], "attr": {"T": {"type": "DT_FLOAT"}}}, {"name": "swa_model/batchnorm_12/add_1", "op": "Add", "input": ["swa_model/batchnorm_12/mul", "swa_model/batchnorm_12/sub"], "attr": {"T": {"type": "DT_FLOAT"}}}, {"name": "swa_model/Relu_12", "op": "Relu", "input": ["swa_model/batchnorm_12/add_1"], "attr": {"T": {"type": "DT_FLOAT"}}}, {"name": "swa_model/Conv2D_13", "op": "Conv2D", "input": ["swa_model/Relu_12", "swa_model/rconv6/w1"], "attr": {"dilations": {"list": {"i": ["1", "1", "1", "1"]}}, "T": {"type": "DT_FLOAT"}, "data_format": {"s": "TkhXQw=="}, "strides": {"list": {"i": ["1", "1", "1", "1"]}}, "explicit_paddings": {"list": {}}, "use_cudnn_on_gpu": {"b": true}, "padding": {"s": "U0FNRQ=="}}}, {"name": "swa_model/Mean_28", "op": "Mean", "input": ["swa_model/Conv2D_13", "swa_model/Tensordot_4/free"], "attr": {"Tidx": {"type": "DT_INT32"}, "keep_dims": {"b": false}, "T": {"type": "DT_FLOAT"}}}, {"name": "swa_model/sub_15", "op": "SquaredDifference", "input": ["swa_model/Conv2D_13", "swa_model/Mean_28"], "attr": {"T": {"type": "DT_FLOAT"}}}, {"name": "swa_model/cond_16/Switch_1", "op": "Switch", "input": ["swa_model/Mean_28", "swa_model/Const"], "attr": {"T": {"type": "DT_FLOAT"}}}, {"name": "swa_model/Mean_29", "op": "Mean", "input": ["swa_model/sub_15", "swa_model/Tensordot_4/free"], "attr": {"Tidx": {"type": "DT_INT32"}, "keep_dims": {"b": false}, "T": {"type": "DT_FLOAT"}}}, {"name": "swa_model/cond_16/Merge", "op": "Merge", "input": ["ConstantFolding/swa_model/cond_16/Switch_3-folded-0", "swa_model/cond_16/Switch_1:1"], "attr": {"T": {"type": "DT_FLOAT"}, "N": {"i": "2"}}}, {"name": "swa_model/cond_16/Switch_2", "op": "Switch", "input": ["swa_model/Mean_29", "swa_model/Const"], "attr": {"T": {"type": "DT_FLOAT"}}}, {"name": "swa_model/cond_16/Merge_1", "op": "Merge", "input": ["ConstantFolding/swa_model/cond_16/Switch_4-folded-0", "swa_model/cond_16/Switch_2:1"], "attr": {"T": {"type": "DT_FLOAT"}, "N": {"i": "2"}}}, {"name": "swa_model/batchnorm_13/sub", "op": "Const", "input": ["^swa_model/cond_16/Merge", "^swa_model/cond_16/Merge_1"], "attr": {"value": {"tensor": {"dtype": "DT_FLOAT", "tensorShape": {"dim": [{"size": "96"}]}}}, "dtype": {"type": "DT_FLOAT"}}}, {"name": "swa_model/batchnorm_13/Rsqrt", "op": "Const", "input": ["^swa_model/cond_16/Merge_1"], "attr": {"value": {"tensor": {"dtype": "DT_FLOAT", "tensorShape": {"dim": [{"size": "96"}]}}}, "dtype": {"type": "DT_FLOAT"}}}, {"name": "swa_model/batchnorm_13/mul", "op": "Mul", "input": ["swa_model/Conv2D_13", "swa_model/batchnorm_13/Rsqrt"], "attr": {"T": {"type": "DT_FLOAT"}}}, {"name": "swa_model/batchnorm_13/add_1", "op": "Add", "input": ["swa_model/batchnorm_13/mul", "swa_model/batchnorm_13/sub"], "attr": {"T": {"type": "DT_FLOAT"}}}, {"name": "swa_model/Relu_13", "op": "Relu", "input": ["swa_model/batchnorm_13/add_1"], "attr": {"T": {"type": "DT_FLOAT"}}}, {"name": "swa_model/Conv2D_14", "op": "Conv2D", "input": ["swa_model/Relu_13", "swa_model/rconv6/w2"], "attr": {"explicit_paddings": {"list": {}}, "use_cudnn_on_gpu": {"b": true}, "padding": {"s": "U0FNRQ=="}, "dilations": {"list": {"i": ["1", "1", "1", "1"]}}, "T": {"type": "DT_FLOAT"}, "strides": {"list": {"i": ["1", "1", "1", "1"]}}, "data_format": {"s": "TkhXQw=="}}}, {"name": "swa_model/add_9", "op": "Add", "input": ["swa_model/Conv2D_14", "swa_model/add_8"], "attr": {"T": {"type": "DT_FLOAT"}}}, {"name": "swa_model/Mean_30", "op": "Mean", "input": ["swa_model/add_9", "swa_model/Tensordot_4/free"], "attr": {"T": {"type": "DT_FLOAT"}, "Tidx": {"type": "DT_INT32"}, "keep_dims": {"b": false}}}, {"name": "swa_model/sub_16", "op": "SquaredDifference", "input": ["swa_model/Mean_30", "swa_model/add_9"], "attr": {"T": {"type": "DT_FLOAT"}}}, {"name": "swa_model/cond_17/Switch_1", "op": "Switch", "input": ["swa_model/Mean_30", "swa_model/Const"], "attr": {"T": {"type": "DT_FLOAT"}}}, {"name": "swa_model/Mean_31", "op": "Mean", "input": ["swa_model/sub_16", "swa_model/Tensordot_4/free"], "attr": {"Tidx": {"type": "DT_INT32"}, "keep_dims": {"b": false}, "T": {"type": "DT_FLOAT"}}}, {"name": "swa_model/cond_17/Merge", "op": "Merge", "input": ["ConstantFolding/swa_model/cond_17/Switch_3-folded-0", "swa_model/cond_17/Switch_1:1"], "attr": {"N": {"i": "2"}, "T": {"type": "DT_FLOAT"}}}, {"name": "swa_model/cond_17/Switch_2", "op": "Switch", "input": ["swa_model/Mean_31", "swa_model/Const"], "attr": {"T": {"type": "DT_FLOAT"}}}, {"name": "swa_model/cond_17/Merge_1", "op": "Merge", "input": ["ConstantFolding/swa_model/cond_17/Switch_4-folded-0", "swa_model/cond_17/Switch_2:1"], "attr": {"N": {"i": "2"}, "T": {"type": "DT_FLOAT"}}}, {"name": "swa_model/batchnorm_14/sub", "op": "Const", "input": ["^swa_model/cond_17/Merge", "^swa_model/cond_17/Merge_1"], "attr": {"value": {"tensor": {"dtype": "DT_FLOAT", "tensorShape": {"dim": [{"size": "96"}]}}}, "dtype": {"type": "DT_FLOAT"}}}, {"name": "swa_model/batchnorm_14/Rsqrt", "op": "Const", "input": ["^swa_model/cond_17/Merge_1"], "attr": {"value": {"tensor": {"dtype": "DT_FLOAT", "tensorShape": {"dim": [{"size": "96"}]}}}, "dtype": {"type": "DT_FLOAT"}}}, {"name": "swa_model/batchnorm_14/mul", "op": "Mul", "input": ["swa_model/add_9", "swa_model/batchnorm_14/Rsqrt"], "attr": {"T": {"type": "DT_FLOAT"}}}, {"name": "swa_model/batchnorm_14/add_1", "op": "Add", "input": ["swa_model/batchnorm_14/mul", "swa_model/batchnorm_14/sub"], "attr": {"T": {"type": "DT_FLOAT"}}}, {"name": "swa_model/Relu_14", "op": "Relu", "input": ["swa_model/batchnorm_14/add_1"], "attr": {"T": {"type": "DT_FLOAT"}}}, {"name": "swa_model/Conv2D_18", "op": "Conv2D", "input": ["swa_model/Relu_14", "swa_model/v1/w"], "attr": {"padding": {"s": "U0FNRQ=="}, "dilations": {"list": {"i": ["1", "1", "1", "1"]}}, "T": {"type": "DT_FLOAT"}, "data_format": {"s": "TkhXQw=="}, "strides": {"list": {"i": ["1", "1", "1", "1"]}}, "explicit_paddings": {"list": {}}, "use_cudnn_on_gpu": {"b": true}}}, {"name": "swa_model/Conv2D_16", "op": "Conv2D", "input": ["swa_model/Relu_14", "swa_model/g1/w"], "attr": {"dilations": {"list": {"i": ["1", "1", "1", "1"]}}, "T": {"type": "DT_FLOAT"}, "data_format": {"s": "TkhXQw=="}, "strides": {"list": {"i": ["1", "1", "1", "1"]}}, "use_cudnn_on_gpu": {"b": true}, "explicit_paddings": {"list": {}}, "padding": {"s": "U0FNRQ=="}}}, {"name": "swa_model/Conv2D_15", "op": "Conv2D", "input": ["swa_model/Relu_14", "swa_model/p1/intermediate_conv/w"], "attr": {"T": {"type": "DT_FLOAT"}, "data_format": {"s": "TkhXQw=="}, "strides": {"list": {"i": ["1", "1", "1", "1"]}}, "use_cudnn_on_gpu": {"b": true}, "explicit_paddings": {"list": {}}, "padding": {"s": "U0FNRQ=="}, "dilations": {"list": {"i": ["1", "1", "1", "1"]}}}}, {"name": "swa_model/Mean_37", "op": "Mean", "input": ["swa_model/Conv2D_18", "swa_model/Tensordot_4/free"], "attr": {"T": {"type": "DT_FLOAT"}, "Tidx": {"type": "DT_INT32"}, "keep_dims": {"b": false}}}, {"name": "swa_model/Mean_32", "op": "Mean", "input": ["swa_model/Conv2D_16", "swa_model/Tensordot_4/free"], "attr": {"Tidx": {"type": "DT_INT32"}, "keep_dims": {"b": false}, "T": {"type": "DT_FLOAT"}}}, {"name": "swa_model/sub_22", "op": "SquaredDifference", "input": ["swa_model/Conv2D_18", "swa_model/Mean_37"], "attr": {"T": {"type": "DT_FLOAT"}}}, {"name": "swa_model/cond_23/Switch_1", "op": "Switch", "input": ["swa_model/Mean_37", "swa_model/Const"], "attr": {"T": {"type": "DT_FLOAT"}}}, {"name": "swa_model/sub_17", "op": "SquaredDifference", "input": ["swa_model/Conv2D_16", "swa_model/Mean_32"], "attr": {"T": {"type": "DT_FLOAT"}}}, {"name": "swa_model/cond_18/Switch_1", "op": "Switch", "input": ["swa_model/Mean_32", "swa_model/Const"], "attr": {"T": {"type": "DT_FLOAT"}}}, {"name": "swa_model/Mean_38", "op": "Mean", "input": ["swa_model/sub_22", "swa_model/Tensordot_4/free"], "attr": {"Tidx": {"type": "DT_INT32"}, "keep_dims": {"b": false}, "T": {"type": "DT_FLOAT"}}}, {"name": "swa_model/cond_23/Merge", "op": "Merge", "input": ["ConstantFolding/swa_model/cond_23/Switch_3-folded-0", "swa_model/cond_23/Switch_1:1"], "attr": {"T": {"type": "DT_FLOAT"}, "N": {"i": "2"}}}, {"name": "swa_model/Mean_33", "op": "Mean", "input": ["swa_model/sub_17", "swa_model/Tensordot_4/free"], "attr": {"Tidx": {"type": "DT_INT32"}, "keep_dims": {"b": false}, "T": {"type": "DT_FLOAT"}}}, {"name": "swa_model/cond_18/Merge", "op": "Merge", "input": ["ConstantFolding/swa_model/cond_18/Switch_3-folded-0", "swa_model/cond_18/Switch_1:1"], "attr": {"N": {"i": "2"}, "T": {"type": "DT_FLOAT"}}}, {"name": "swa_model/cond_23/Switch_2", "op": "Switch", "input": ["swa_model/Mean_38", "swa_model/Const"], "attr": {"T": {"type": "DT_FLOAT"}}}, {"name": "swa_model/cond_18/Switch_2", "op": "Switch", "input": ["swa_model/Mean_33", "swa_model/Const"], "attr": {"T": {"type": "DT_FLOAT"}}}, {"name": "swa_model/cond_23/Merge_1", "op": "Merge", "input": ["ConstantFolding/swa_model/cond_23/Switch_4-folded-0", "swa_model/cond_23/Switch_2:1"], "attr": {"T": {"type": "DT_FLOAT"}, "N": {"i": "2"}}}, {"name": "swa_model/cond_18/Merge_1", "op": "Merge", "input": ["ConstantFolding/swa_model/cond_18/Switch_4-folded-0", "swa_model/cond_18/Switch_2:1"], "attr": {"T": {"type": "DT_FLOAT"}, "N": {"i": "2"}}}, {"name": "swa_model/batchnorm_17/sub", "op": "Const", "input": ["^swa_model/cond_23/Merge", "^swa_model/cond_23/Merge_1"], "attr": {"value": {"tensor": {"dtype": "DT_FLOAT", "tensorShape": {"dim": [{"size": "32"}]}}}, "dtype": {"type": "DT_FLOAT"}}}, {"name": "swa_model/batchnorm_17/Rsqrt", "op": "Const", "input": ["^swa_model/cond_23/Merge_1"], "attr": {"dtype": {"type": "DT_FLOAT"}, "value": {"tensor": {"dtype": "DT_FLOAT", "tensorShape": {"dim": [{"size": "32"}]}}}}}, {"name": "swa_model/batchnorm_15/sub", "op": "Const", "input": ["^swa_model/cond_18/Merge", "^swa_model/cond_18/Merge_1"], "attr": {"value": {"tensor": {"dtype": "DT_FLOAT", "tensorShape": {"dim": [{"size": "32"}]}}}, "dtype": {"type": "DT_FLOAT"}}}, {"name": "swa_model/batchnorm_15/Rsqrt", "op": "Const", "input": ["^swa_model/cond_18/Merge_1"], "attr": {"value": {"tensor": {"dtype": "DT_FLOAT", "tensorShape": {"dim": [{"size": "32"}]}}}, "dtype": {"type": "DT_FLOAT"}}}, {"name": "swa_model/batchnorm_17/mul", "op": "Mul", "input": ["swa_model/Conv2D_18", "swa_model/batchnorm_17/Rsqrt"], "attr": {"T": {"type": "DT_FLOAT"}}}, {"name": "swa_model/batchnorm_15/mul", "op": "Mul", "input": ["swa_model/Conv2D_16", "swa_model/batchnorm_15/Rsqrt"], "attr": {"T": {"type": "DT_FLOAT"}}}, {"name": "swa_model/batchnorm_17/add_1", "op": "Add", "input": ["swa_model/batchnorm_17/mul", "swa_model/batchnorm_17/sub"], "attr": {"T": {"type": "DT_FLOAT"}}}, {"name": "swa_model/batchnorm_15/add_1", "op": "Add", "input": ["swa_model/batchnorm_15/mul", "swa_model/batchnorm_15/sub"], "attr": {"T": {"type": "DT_FLOAT"}}}, {"name": "swa_model/Relu_17", "op": "Relu", "input": ["swa_model/batchnorm_17/add_1"], "attr": {"T": {"type": "DT_FLOAT"}}}, {"name": "swa_model/Relu_15", "op": "Relu", "input": ["swa_model/batchnorm_15/add_1"], "attr": {"T": {"type": "DT_FLOAT"}}}, {"name": "swa_model/Mean_39", "op": "Mean", "input": ["swa_model/Relu_17", "swa_model/Mean_34/reduction_indices"], "attr": {"Tidx": {"type": "DT_INT32"}, "keep_dims": {"b": false}, "T": {"type": "DT_FLOAT"}}}, {"name": "swa_model/Conv2D_19", "op": "Conv2D", "input": ["swa_model/Relu_17", "swa_model/vownership/w"], "attr": {"data_format": {"s": "TkhXQw=="}, "strides": {"list": {"i": ["1", "1", "1", "1"]}}, "use_cudnn_on_gpu": {"b": true}, "explicit_paddings": {"list": {}}, "padding": {"s": "U0FNRQ=="}, "dilations": {"list": {"i": ["1", "1", "1", "1"]}}, "T": {"type": "DT_FLOAT"}}}, {"name": "swa_model/Max_2", "op": "Max", "input": ["swa_model/Relu_15", "swa_model/Mean_34/reduction_indices"], "attr": {"Tidx": {"type": "DT_INT32"}, "keep_dims": {"b": true}, "T": {"type": "DT_FLOAT"}}}, {"name": "swa_model/Mean_34", "op": "Mean", "input": ["swa_model/Relu_15", "swa_model/Mean_34/reduction_indices"], "attr": {"Tidx": {"type": "DT_INT32"}, "keep_dims": {"b": true}, "T": {"type": "DT_FLOAT"}}}, {"name": "swa_model/mul_30", "op": "Mul", "input": ["swa_model/Mean_39", "swa_model/sub_25"], "attr": {"T": {"type": "DT_FLOAT"}}}, {"name": "swa_model/mul_29", "op": "Mul", "input": ["swa_model/Mean_39", "swa_model/truediv_3"], "attr": {"T": {"type": "DT_FLOAT"}}}, {"name": "swa_model/cond_24/Switch_1", "op": "Switch", "input": ["swa_model/Conv2D_19", "swa_model/strided_slice_11"], "attr": {"T": {"type": "DT_FLOAT"}}}, {"name": "swa_model/mul_23", "op": "Mul", "input": ["swa_model/Mean_34", "swa_model/truediv_2"], "attr": {"T": {"type": "DT_FLOAT"}}}, {"name": "swa_model/concat_3", "op": "ConcatV2", "input": ["swa_model/Mean_39", "swa_model/mul_29", "swa_model/mul_30", "swa_model/policy_output/axis"], "attr": {"N": {"i": "3"}, "Tidx": {"type": "DT_INT32"}, "T": {"type": "DT_FLOAT"}}}, {"name": "swa_model/cond_24/transpose", "op": "Transpose", "input": ["swa_model/cond_24/Switch_1:1", "swa_model/cond_24/transpose/perm"], "attr": {"T": {"type": "DT_FLOAT"}, "Tperm": {"type": "DT_INT32"}}}, {"name": "swa_model/concat_2", "op": "ConcatV2", "input": ["swa_model/Mean_34", "swa_model/mul_23", "swa_model/Max_2", "swa_model/concat_2/axis"], "attr": {"N": {"i": "3"}, "Tidx": {"type": "DT_INT32"}, "T": {"type": "DT_FLOAT"}}}, {"name": "swa_model/MatMul_1", "op": "MatMul", "input": ["swa_model/concat_3", "swa_model/v2/w"], "attr": {"transpose_a": {"b": false}, "transpose_b": {"b": false}, "T": {"type": "DT_FLOAT"}}}, {"name": "swa_model/cond_24/Merge", "op": "Merge", "input": ["swa_model/cond_24/Switch_1", "swa_model/cond_24/transpose"], "attr": {"T": {"type": "DT_FLOAT"}, "N": {"i": "2"}}}, {"name": "swa_model/Tensordot_4/Shape", "op": "Shape", "input": ["swa_model/concat_2"], "attr": {"T": {"type": "DT_FLOAT"}, "out_type": {"type": "DT_INT32"}}}, {"name": "swa_model/add_11", "op": "Add", "input": ["swa_model/MatMul_1", "swa_model/v2/b"], "attr": {"T": {"type": "DT_FLOAT"}}}, {"name": "swa_model/cond_25/Switch_1", "op": "Switch", "input": ["swa_model/cond_24/Merge", "swa_model/strided_slice_9"], "attr": {"T": {"type": "DT_FLOAT"}}}, {"name": "swa_model/Tensordot_4/GatherV2_1", "op": "GatherV2", "input": ["swa_model/Tensordot_4/Shape", "swa_model/strided_slice_11/stack_1", "swa_model/Tensordot_4/GatherV2_1/axis"], "attr": {"Tparams": {"type": "DT_INT32"}, "Taxis": {"type": "DT_INT32"}, "batch_dims": {"i": "0"}, "Tindices": {"type": "DT_INT32"}}}, {"name": "swa_model/Tensordot_4/GatherV2", "op": "GatherV2", "input": ["swa_model/Tensordot_4/Shape", "swa_model/Tensordot_4/free", "swa_model/Tensordot_4/GatherV2_1/axis"], "attr": {"Taxis": {"type": "DT_INT32"}, "batch_dims": {"i": "0"}, "Tindices": {"type": "DT_INT32"}, "Tparams": {"type": "DT_INT32"}}}, {"name": "swa_model/Relu_18", "op": "Relu", "input": ["swa_model/add_11"], "attr": {"T": {"type": "DT_FLOAT"}}}, {"name": "swa_model/cond_25/ReverseV2", "op": "ReverseV2", "input": ["swa_model/cond_25/Switch_1:1", "swa_model/cond_25/ReverseV2/axis"], "attr": {"Tidx": {"type": "DT_INT32"}, "T": {"type": "DT_FLOAT"}}}, {"name": "swa_model/Tensordot_4/Prod_1", "op": "Prod", "input": ["swa_model/Tensordot_4/GatherV2_1", "swa_model/strided_slice_9/stack"], "attr": {"T": {"type": "DT_INT32"}, "Tidx": {"type": "DT_INT32"}, "keep_dims": {"b": false}}}, {"name": "swa_model/Tensordot_4/Prod", "op": "Prod", "input": ["swa_model/Tensordot_4/GatherV2", "swa_model/strided_slice_9/stack"], "attr": {"T": {"type": "DT_INT32"}, "Tidx": {"type": "DT_INT32"}, "keep_dims": {"b": false}}}, {"name": "swa_model/Tensordot_4/concat_1", "op": "ConcatV2", "input": ["swa_model/Tensordot_4/GatherV2", "swa_model/Tensordot_4/Const_2", "swa_model/Tensordot_4/GatherV2_1/axis"], "attr": {"N": {"i": "2"}, "Tidx": {"type": "DT_INT32"}, "T": {"type": "DT_INT32"}}}, {"name": "swa_model/MatMul_2", "op": "MatMul", "input": ["swa_model/Relu_18", "swa_model/v3/w"], "attr": {"transpose_a": {"b": false}, "transpose_b": {"b": false}, "T": {"type": "DT_FLOAT"}}}, {"name": "swa_model/MatMul_3", "op": "MatMul", "input": ["swa_model/Relu_18", "swa_model/mv3/w"], "attr": {"transpose_b": {"b": false}, "T": {"type": "DT_FLOAT"}, "transpose_a": {"b": false}}}, {"name": "swa_model/cond_25/Merge", "op": "Merge", "input": ["swa_model/cond_25/Switch_1", "swa_model/cond_25/ReverseV2"], "attr": {"T": {"type": "DT_FLOAT"}, "N": {"i": "2"}}}, {"name": "swa_model/Tensordot_4/stack", "op": "Pack", "input": ["swa_model/Tensordot_4/Prod", "swa_model/Tensordot_4/Prod_1"], "attr": {"T": {"type": "DT_INT32"}, "axis": {"i": "0"}, "N": {"i": "2"}}}, {"name": "swa_model/add_14", "op": "Add", "input": ["swa_model/MatMul_2", "swa_model/add_12"], "attr": {"T": {"type": "DT_FLOAT"}}}, {"name": "swa_model/add_13", "op": "Add", "input": ["swa_model/MatMul_3", "swa_model/mv3/b"], "attr": {"T": {"type": "DT_FLOAT"}}}, {"name": "swa_model/cond_26/Switch_1", "op": "Switch", "input": ["swa_model/cond_25/Merge", "swa_model/strided_slice_10"], "attr": {"T": {"type": "DT_FLOAT"}}}, {"name": "swa_model/Tensordot_4/Reshape", "op": "Reshape", "input": ["swa_model/concat_2", "swa_model/Tensordot_4/stack"], "attr": {"T": {"type": "DT_FLOAT"}, "Tshape": {"type": "DT_INT32"}}}, {"name": "swa_model/value_output", "op": "Reshape", "input": ["swa_model/add_14", "swa_model/value_output/shape"], "attr": {"Tshape": {"type": "DT_INT32"}, "T": {"type": "DT_FLOAT"}}}, {"name": "swa_model/miscvalues_output", "op": "Reshape", "input": ["swa_model/add_13", "swa_model/miscvalues_output/shape"], "attr": {"Tshape": {"type": "DT_INT32"}, "T": {"type": "DT_FLOAT"}}}, {"name": "swa_model/cond_26/ReverseV2", "op": "ReverseV2", "input": ["swa_model/cond_26/Switch_1:1", "swa_model/cond_26/ReverseV2/axis"], "attr": {"T": {"type": "DT_FLOAT"}, "Tidx": {"type": "DT_INT32"}}}, {"name": "swa_model/Tensordot_5/MatMul", "op": "MatMul", "input": ["swa_model/Tensordot_4/Reshape", "swa_model/Tensordot_5/Reshape_1"], "attr": {"transpose_a": {"b": false}, "transpose_b": {"b": false}, "T": {"type": "DT_FLOAT"}}}, {"name": "swa_model/Tensordot_4/MatMul", "op": "MatMul", "input": ["swa_model/Tensordot_4/Reshape", "swa_model/Tensordot_4/Reshape_1"], "attr": {"T": {"type": "DT_FLOAT"}, "transpose_a": {"b": false}, "transpose_b": {"b": false}}}, {"name": "swa_model/cond_26/Merge", "op": "Merge", "input": ["swa_model/cond_26/Switch_1", "swa_model/cond_26/ReverseV2"], "attr": {"T": {"type": "DT_FLOAT"}, "N": {"i": "2"}}}, {"name": "swa_model/Reshape_12", "op": "Reshape", "input": ["swa_model/Tensordot_5/MatMul", "swa_model/Reshape_12/shape"], "attr": {"T": {"type": "DT_FLOAT"}, "Tshape": {"type": "DT_INT32"}}}, {"name": "swa_model/Tensordot_4", "op": "Reshape", "input": ["swa_model/Tensordot_4/MatMul", "swa_model/Tensordot_4/concat_1"], "attr": {"T": {"type": "DT_FLOAT"}, "Tshape": {"type": "DT_INT32"}}}, {"name": "swa_model/ownership_output", "op": "Reshape", "input": ["swa_model/cond_26/Merge", "swa_model/ownership_output/shape"], "attr": {"Tshape": {"type": "DT_INT32"}, "T": {"type": "DT_FLOAT"}}}, {"name": "swa_model/add_10", "op": "Add", "input": ["swa_model/Conv2D_15", "swa_model/Tensordot_4"], "attr": {"T": {"type": "DT_FLOAT"}}}, {"name": "swa_model/Mean_35", "op": "Mean", "input": ["swa_model/add_10", "swa_model/Tensordot_4/free"], "attr": {"T": {"type": "DT_FLOAT"}, "Tidx": {"type": "DT_INT32"}, "keep_dims": {"b": false}}}, {"name": "swa_model/sub_19", "op": "SquaredDifference", "input": ["swa_model/Mean_35", "swa_model/add_10"], "attr": {"T": {"type": "DT_FLOAT"}}}, {"name": "swa_model/cond_19/Switch_1", "op": "Switch", "input": ["swa_model/Mean_35", "swa_model/Const"], "attr": {"T": {"type": "DT_FLOAT"}}}, {"name": "swa_model/Mean_36", "op": "Mean", "input": ["swa_model/sub_19", "swa_model/Tensordot_4/free"], "attr": {"T": {"type": "DT_FLOAT"}, "Tidx": {"type": "DT_INT32"}, "keep_dims": {"b": false}}}, {"name": "swa_model/cond_19/Merge", "op": "Merge", "input": ["ConstantFolding/swa_model/cond_19/Switch_3-folded-0", "swa_model/cond_19/Switch_1:1"], "attr": {"T": {"type": "DT_FLOAT"}, "N": {"i": "2"}}}, {"name": "swa_model/cond_19/Switch_2", "op": "Switch", "input": ["swa_model/Mean_36", "swa_model/Const"], "attr": {"T": {"type": "DT_FLOAT"}}}, {"name": "swa_model/cond_19/Merge_1", "op": "Merge", "input": ["ConstantFolding/swa_model/cond_19/Switch_4-folded-0", "swa_model/cond_19/Switch_2:1"], "attr": {"T": {"type": "DT_FLOAT"}, "N": {"i": "2"}}}, {"name": "swa_model/batchnorm_16/sub", "op": "Const", "input": ["^swa_model/cond_19/Merge", "^swa_model/cond_19/Merge_1"], "attr": {"value": {"tensor": {"dtype": "DT_FLOAT", "tensorShape": {"dim": [{"size": "32"}]}}}, "dtype": {"type": "DT_FLOAT"}}}, {"name": "swa_model/batchnorm_16/Rsqrt", "op": "Const", "input": ["^swa_model/cond_19/Merge_1"], "attr": {"dtype": {"type": "DT_FLOAT"}, "value": {"tensor": {"dtype": "DT_FLOAT", "tensorShape": {"dim": [{"size": "32"}]}}}}}, {"name": "swa_model/batchnorm_16/mul", "op": "Mul", "input": ["swa_model/add_10", "swa_model/batchnorm_16/Rsqrt"], "attr": {"T": {"type": "DT_FLOAT"}}}, {"name": "swa_model/batchnorm_16/add_1", "op": "Add", "input": ["swa_model/batchnorm_16/mul", "swa_model/batchnorm_16/sub"], "attr": {"T": {"type": "DT_FLOAT"}}}, {"name": "swa_model/Relu_16", "op": "Relu", "input": ["swa_model/batchnorm_16/add_1"], "attr": {"T": {"type": "DT_FLOAT"}}}, {"name": "swa_model/Conv2D_17", "op": "Conv2D", "input": ["swa_model/Relu_16", "swa_model/p2/w"], "attr": {"padding": {"s": "U0FNRQ=="}, "dilations": {"list": {"i": ["1", "1", "1", "1"]}}, "T": {"type": "DT_FLOAT"}, "data_format": {"s": "TkhXQw=="}, "strides": {"list": {"i": ["1", "1", "1", "1"]}}, "use_cudnn_on_gpu": {"b": true}, "explicit_paddings": {"list": {}}}}, {"name": "swa_model/sub_21", "op": "Sub", "input": ["swa_model/Conv2D_17", "swa_model/mul_26"], "attr": {"T": {"type": "DT_FLOAT"}}}, {"name": "swa_model/cond_20/Switch_1", "op": "Switch", "input": ["swa_model/sub_21", "swa_model/strided_slice_11"], "attr": {"T": {"type": "DT_FLOAT"}}}, {"name": "swa_model/cond_20/transpose", "op": "Transpose", "input": ["swa_model/cond_20/Switch_1:1", "swa_model/cond_24/transpose/perm"], "attr": {"Tperm": {"type": "DT_INT32"}, "T": {"type": "DT_FLOAT"}}}, {"name": "swa_model/cond_20/Merge", "op": "Merge", "input": ["swa_model/cond_20/Switch_1", "swa_model/cond_20/transpose"], "attr": {"T": {"type": "DT_FLOAT"}, "N": {"i": "2"}}}, {"name": "swa_model/cond_21/Switch_1", "op": "Switch", "input": ["swa_model/cond_20/Merge", "swa_model/strided_slice_9"], "attr": {"T": {"type": "DT_FLOAT"}}}, {"name": "swa_model/cond_21/ReverseV2", "op": "ReverseV2", "input": ["swa_model/cond_21/Switch_1:1", "swa_model/cond_25/ReverseV2/axis"], "attr": {"Tidx": {"type": "DT_INT32"}, "T": {"type": "DT_FLOAT"}}}, {"name": "swa_model/cond_21/Merge", "op": "Merge", "input": ["swa_model/cond_21/Switch_1", "swa_model/cond_21/ReverseV2"], "attr": {"T": {"type": "DT_FLOAT"}, "N": {"i": "2"}}}, {"name": "swa_model/cond_22/Switch_1", "op": "Switch", "input": ["swa_model/cond_21/Merge", "swa_model/strided_slice_10"], "attr": {"T": {"type": "DT_FLOAT"}}}, {"name": "swa_model/cond_22/ReverseV2", "op": "ReverseV2", "input": ["swa_model/cond_22/Switch_1:1", "swa_model/cond_26/ReverseV2/axis"], "attr": {"T": {"type": "DT_FLOAT"}, "Tidx": {"type": "DT_INT32"}}}, {"name": "swa_model/cond_22/Merge", "op": "Merge", "input": ["swa_model/cond_22/Switch_1", "swa_model/cond_22/ReverseV2"], "attr": {"T": {"type": "DT_FLOAT"}, "N": {"i": "2"}}}, {"name": "swa_model/Reshape_11", "op": "Reshape", "input": ["swa_model/cond_22/Merge", "swa_model/Reshape_11/shape"], "attr": {"T": {"type": "DT_FLOAT"}, "Tshape": {"type": "DT_INT32"}}}, {"name": "swa_model/policy_output", "op": "ConcatV2", "input": ["swa_model/Reshape_11", "swa_model/Reshape_12", "swa_model/policy_output/axis"], "attr": {"T": {"type": "DT_FLOAT"}, "N": {"i": "2"}, "Tidx": {"type": "DT_INT32"}}}], "library": {}, "versions": {"producer": 38}}, "weightsManifest": [{"paths": ["group1-shard1of1.bin"], "weights": [{"name": "swa_model/value_output/shape", "shape": [2], "dtype": "int32"}, {"name": "swa_model/add_12", "shape": [3], "dtype": "float32"}, {"name": "swa_model/v3/w", "shape": [48, 3], "dtype": "float32"}, {"name": "swa_model/v2/b", "shape": [48], "dtype": "float32"}, {"name": "swa_model/v2/w", "shape": [96, 48], "dtype": "float32"}, {"name": "swa_model/policy_output/axis", "shape": [], "dtype": "int32"}, {"name": "swa_model/sub_25/y", "shape": [], "dtype": "float32"}, {"name": "swa_model/sub_18/y", "shape": [], "dtype": "float32"}, {"name": "swa_model/Reshape_14/shape", "shape": [2], "dtype": "int32"}, {"name": "swa_model/Sum_1/reduction_indices", "shape": [3], "dtype": "int32"}, {"name": "swa_model/strided_slice_4/stack_2", "shape": [4], "dtype": "int32"}, {"name": "swa_model/strided_slice_4/stack_1", "shape": [4], "dtype": "int32"}, {"name": "swa_model/strided_slice_4/stack", "shape": [4], "dtype": "int32"}, {"name": "swa_model/Reshape/shape", "shape": [4], "dtype": "int32"}, {"name": "swa_model/add", "shape": [1, 22, 22], "dtype": "float32"}, {"name": "swa_model/Reshape_2/shape", "shape": [3], "dtype": "int32"}, {"name": "swa_model/strided_slice_11/stack_2", "shape": [1], "dtype": "int32"}, {"name": "swa_model/strided_slice_11/stack_1", "shape": [1], "dtype": "int32"}, {"name": "swa_model/strided_slice_11/stack", "shape": [1], "dtype": "int32"}, {"name": "swa_model/strided_slice_9/stack", "shape": [1], "dtype": "int32"}, {"name": "ConstantFolding/swa_model/truediv_4_recip", "shape": [], "dtype": "float32"}, {"name": "swa_model/Mean_34/reduction_indices", "shape": [2], "dtype": "int32"}, {"name": "swa_model/Const", "shape": [], "dtype": "bool"}, {"name": "swa_model/Tensordot_4/free", "shape": [3], "dtype": "int32"}, {"name": "swa_model/v1/w", "shape": [1, 1, 96, 32], "dtype": "float32"}, {"name": "swa_model/Reshape_4/shape", "shape": [4], "dtype": "int32"}, {"name": "swa_model/Tensordot_1/Reshape_1", "shape": [14, 96], "dtype": "float32"}, {"name": "swa_model/Tensordot_4/GatherV2_1/axis", "shape": [], "dtype": "int32"}, {"name": "swa_model/PadV2", "shape": [1, 14], "dtype": "float32"}, {"name": "swa_model/conv1/w", "shape": [5, 5, 22, 96], "dtype": "float32"}, {"name": "swa_model/rconv1/w2", "shape": [3, 3, 96, 96], "dtype": "float32"}, {"name": "swa_model/rconv1/w1", "shape": [3, 3, 96, 96], "dtype": "float32"}, {"name": "ConstantFolding/swa_model/cond_3/Switch_4-folded-0", "shape": [96], "dtype": "float32"}, {"name": "ConstantFolding/swa_model/cond_3/Switch_3-folded-0", "shape": [96], "dtype": "float32"}, {"name": "ConstantFolding/swa_model/cond_4/Switch_4-folded-0", "shape": [96], "dtype": "float32"}, {"name": "ConstantFolding/swa_model/cond_4/Switch_3-folded-0", "shape": [96], "dtype": "float32"}, {"name": "swa_model/rconv2/w2", "shape": [3, 3, 96, 96], "dtype": "float32"}, {"name": "swa_model/rconv2/w1", "shape": [3, 3, 96, 96], "dtype": "float32"}, {"name": "ConstantFolding/swa_model/cond_5/Switch_4-folded-0", "shape": [96], "dtype": "float32"}, {"name": "ConstantFolding/swa_model/cond_5/Switch_3-folded-0", "shape": [96], "dtype": "float32"}, {"name": "ConstantFolding/swa_model/cond_6/Switch_4-folded-0", "shape": [96], "dtype": "float32"}, {"name": "ConstantFolding/swa_model/cond_6/Switch_3-folded-0", "shape": [96], "dtype": "float32"}, {"name": "swa_model/rconv3/w2", "shape": [3, 3, 64, 96], "dtype": "float32"}, {"name": "swa_model/Tensordot_2/Const_2", "shape": [1], "dtype": "int32"}, {"name": "swa_model/concat_2/axis", "shape": [], "dtype": "int32"}, {"name": "swa_model/rconv3/w1b", "shape": [3, 3, 96, 32], "dtype": "float32"}, {"name": "ConstantFolding/swa_model/cond_7/Switch_4-folded-0", "shape": [96], "dtype": "float32"}, {"name": "ConstantFolding/swa_model/cond_7/Switch_3-folded-0", "shape": [96], "dtype": "float32"}, {"name": "ConstantFolding/swa_model/cond_8/Switch_4-folded-0", "shape": [32], "dtype": "float32"}, {"name": "ConstantFolding/swa_model/cond_8/Switch_3-folded-0", "shape": [32], "dtype": "float32"}, {"name": "swa_model/Reshape_10/shape", "shape": [4], "dtype": "int32"}, {"name": "swa_model/Tensordot_2/Reshape_1", "shape": [96, 64], "dtype": "float32"}, {"name": "swa_model/rconv3/w1a", "shape": [3, 3, 96, 64], "dtype": "float32"}, {"name": "ConstantFolding/swa_model/cond_9/Switch_4-folded-0", "shape": [64], "dtype": "float32"}, {"name": "ConstantFolding/swa_model/cond_9/Switch_3-folded-0", "shape": [64], "dtype": "float32"}, {"name": "swa_model/rconv4/w2", "shape": [3, 3, 96, 96], "dtype": "float32"}, {"name": "swa_model/rconv4/w1", "shape": [3, 3, 96, 96], "dtype": "float32"}, {"name": "ConstantFolding/swa_model/cond_10/Switch_4-folded-0", "shape": [96], "dtype": "float32"}, {"name": "ConstantFolding/swa_model/cond_10/Switch_3-folded-0", "shape": [96], "dtype": "float32"}, {"name": "ConstantFolding/swa_model/cond_11/Switch_4-folded-0", "shape": [96], "dtype": "float32"}, {"name": "ConstantFolding/swa_model/cond_11/Switch_3-folded-0", "shape": [96], "dtype": "float32"}, {"name": "swa_model/rconv5/w2", "shape": [3, 3, 64, 96], "dtype": "float32"}, {"name": "swa_model/rconv5/w1b", "shape": [3, 3, 96, 32], "dtype": "float32"}, {"name": "ConstantFolding/swa_model/cond_12/Switch_4-folded-0", "shape": [96], "dtype": "float32"}, {"name": "ConstantFolding/swa_model/cond_12/Switch_3-folded-0", "shape": [96], "dtype": "float32"}, {"name": "ConstantFolding/swa_model/cond_13/Switch_4-folded-0", "shape": [32], "dtype": "float32"}, {"name": "ConstantFolding/swa_model/cond_13/Switch_3-folded-0", "shape": [32], "dtype": "float32"}, {"name": "swa_model/Tensordot_3/Reshape_1", "shape": [96, 64], "dtype": "float32"}, {"name": "swa_model/rconv5/w1a", "shape": [3, 3, 96, 64], "dtype": "float32"}, {"name": "ConstantFolding/swa_model/cond_14/Switch_4-folded-0", "shape": [64], "dtype": "float32"}, {"name": "ConstantFolding/swa_model/cond_14/Switch_3-folded-0", "shape": [64], "dtype": "float32"}, {"name": "swa_model/rconv6/w2", "shape": [3, 3, 96, 96], "dtype": "float32"}, {"name": "swa_model/rconv6/w1", "shape": [3, 3, 96, 96], "dtype": "float32"}, {"name": "ConstantFolding/swa_model/cond_15/Switch_4-folded-0", "shape": [96], "dtype": "float32"}, {"name": "ConstantFolding/swa_model/cond_15/Switch_3-folded-0", "shape": [96], "dtype": "float32"}, {"name": "ConstantFolding/swa_model/cond_16/Switch_4-folded-0", "shape": [96], "dtype": "float32"}, {"name": "ConstantFolding/swa_model/cond_16/Switch_3-folded-0", "shape": [96], "dtype": "float32"}, {"name": "ConstantFolding/swa_model/cond_17/Switch_4-folded-0", "shape": [96], "dtype": "float32"}, {"name": "ConstantFolding/swa_model/cond_17/Switch_3-folded-0", "shape": [96], "dtype": "float32"}, {"name": "ConstantFolding/swa_model/cond_23/Switch_4-folded-0", "shape": [32], "dtype": "float32"}, {"name": "ConstantFolding/swa_model/cond_23/Switch_3-folded-0", "shape": [32], "dtype": "float32"}, {"name": "swa_model/Reshape_12/shape", "shape": [3], "dtype": "int32"}, {"name": "swa_model/Tensordot_5/Reshape_1", "shape": [96, 2], "dtype": "float32"}, {"name": "swa_model/g1/w", "shape": [1, 1, 96, 32], "dtype": "float32"}, {"name": "ConstantFolding/swa_model/cond_18/Switch_4-folded-0", "shape": [32], "dtype": "float32"}, {"name": "ConstantFolding/swa_model/cond_18/Switch_3-folded-0", "shape": [32], "dtype": "float32"}, {"name": "swa_model/Reshape_11/shape", "shape": [3], "dtype": "int32"}, {"name": "swa_model/sub_20/x", "shape": [], "dtype": "float32"}, {"name": "swa_model/mul_26/y", "shape": [], "dtype": "float32"}, {"name": "swa_model/p2/w", "shape": [1, 1, 32, 2], "dtype": "float32"}, {"name": "swa_model/Tensordot_4/Const_2", "shape": [1], "dtype": "int32"}, {"name": "swa_model/Tensordot_4/Reshape_1", "shape": [96, 32], "dtype": "float32"}, {"name": "swa_model/p1/intermediate_conv/w", "shape": [1, 1, 96, 32], "dtype": "float32"}, {"name": "ConstantFolding/swa_model/cond_19/Switch_4-folded-0", "shape": [32], "dtype": "float32"}, {"name": "ConstantFolding/swa_model/cond_19/Switch_3-folded-0", "shape": [32], "dtype": "float32"}, {"name": "swa_model/ownership_output/shape", "shape": [3], "dtype": "int32"}, {"name": "swa_model/vownership/w", "shape": [1, 1, 32, 1], "dtype": "float32"}, {"name": "swa_model/miscvalues_output/shape", "shape": [2], "dtype": "int32"}, {"name": "swa_model/mv3/b", "shape": [6], "dtype": "float32"}, {"name": "swa_model/mv3/w", "shape": [48, 6], "dtype": "float32"}, {"name": "swa_model/cond_24/transpose/perm", "shape": [4], "dtype": "int32"}, {"name": "swa_model/cond_26/ReverseV2/axis", "shape": [1], "dtype": "int32"}, {"name": "swa_model/cond_25/ReverseV2/axis", "shape": [1], "dtype": "int32"}, {"name": "swa_model/batchnorm/sub", "shape": [96], "dtype": "float32"}, {"name": "swa_model/batchnorm/Rsqrt", "shape": [96], "dtype": "float32"}, {"name": "swa_model/batchnorm_1/sub", "shape": [96], "dtype": "float32"}, {"name": "swa_model/batchnorm_1/Rsqrt", "shape": [96], "dtype": "float32"}, {"name": "swa_model/batchnorm_2/sub", "shape": [96], "dtype": "float32"}, {"name": "swa_model/batchnorm_2/Rsqrt", "shape": [96], "dtype": "float32"}, {"name": "swa_model/batchnorm_3/sub", "shape": [96], "dtype": "float32"}, {"name": "swa_model/batchnorm_3/Rsqrt", "shape": [96], "dtype": "float32"}, {"name": "swa_model/batchnorm_4/sub", "shape": [96], "dtype": "float32"}, {"name": "swa_model/batchnorm_4/Rsqrt", "shape": [96], "dtype": "float32"}, {"name": "swa_model/batchnorm_5/sub", "shape": [32], "dtype": "float32"}, {"name": "swa_model/batchnorm_5/Rsqrt", "shape": [32], "dtype": "float32"}, {"name": "swa_model/batchnorm_6/sub", "shape": [64], "dtype": "float32"}, {"name": "swa_model/batchnorm_6/Rsqrt", "shape": [64], "dtype": "float32"}, {"name": "swa_model/batchnorm_7/sub", "shape": [96], "dtype": "float32"}, {"name": "swa_model/batchnorm_7/Rsqrt", "shape": [96], "dtype": "float32"}, {"name": "swa_model/batchnorm_8/sub", "shape": [96], "dtype": "float32"}, {"name": "swa_model/batchnorm_8/Rsqrt", "shape": [96], "dtype": "float32"}, {"name": "swa_model/batchnorm_9/sub", "shape": [96], "dtype": "float32"}, {"name": "swa_model/batchnorm_9/Rsqrt", "shape": [96], "dtype": "float32"}, {"name": "swa_model/batchnorm_10/sub", "shape": [32], "dtype": "float32"}, {"name": "swa_model/batchnorm_10/Rsqrt", "shape": [32], "dtype": "float32"}, {"name": "swa_model/batchnorm_11/sub", "shape": [64], "dtype": "float32"}, {"name": "swa_model/batchnorm_11/Rsqrt", "shape": [64], "dtype": "float32"}, {"name": "swa_model/batchnorm_12/sub", "shape": [96], "dtype": "float32"}, {"name": "swa_model/batchnorm_12/Rsqrt", "shape": [96], "dtype": "float32"}, {"name": "swa_model/batchnorm_13/sub", "shape": [96], "dtype": "float32"}, {"name": "swa_model/batchnorm_13/Rsqrt", "shape": [96], "dtype": "float32"}, {"name": "swa_model/batchnorm_14/sub", "shape": [96], "dtype": "float32"}, {"name": "swa_model/batchnorm_14/Rsqrt", "shape": [96], "dtype": "float32"}, {"name": "swa_model/batchnorm_17/sub", "shape": [32], "dtype": "float32"}, {"name": "swa_model/batchnorm_17/Rsqrt", "shape": [32], "dtype": "float32"}, {"name": "swa_model/batchnorm_15/sub", "shape": [32], "dtype": "float32"}, {"name": "swa_model/batchnorm_15/Rsqrt", "shape": [32], "dtype": "float32"}, {"name": "swa_model/batchnorm_16/sub", "shape": [32], "dtype": "float32"}, {"name": "swa_model/batchnorm_16/Rsqrt", "shape": [32], "dtype": "float32"}]}]}